node {
  name: "global_step/Initializer/zeros"
  op: "Const"
  attr {
    key: "_class"
    value {
      list {
        s: "loc:@global_step"
      }
    }
  }
  attr {
    key: "_output_shapes"
    value {
      list {
        shape {
        }
      }
    }
  }
  attr {
    key: "dtype"
    value {
      type: DT_INT64
    }
  }
  attr {
    key: "value"
    value {
      tensor {
        dtype: DT_INT64
        tensor_shape {
        }
        int64_val: 0
      }
    }
  }
}
node {
  name: "global_step"
  op: "VariableV2"
  attr {
    key: "_class"
    value {
      list {
        s: "loc:@global_step"
      }
    }
  }
  attr {
    key: "_output_shapes"
    value {
      list {
        shape {
        }
      }
    }
  }
  attr {
    key: "container"
    value {
      s: ""
    }
  }
  attr {
    key: "dtype"
    value {
      type: DT_INT64
    }
  }
  attr {
    key: "shape"
    value {
      shape {
      }
    }
  }
  attr {
    key: "shared_name"
    value {
      s: ""
    }
  }
}
node {
  name: "global_step/Assign"
  op: "Assign"
  input: "global_step"
  input: "global_step/Initializer/zeros"
  attr {
    key: "T"
    value {
      type: DT_INT64
    }
  }
  attr {
    key: "_class"
    value {
      list {
        s: "loc:@global_step"
      }
    }
  }
  attr {
    key: "_output_shapes"
    value {
      list {
        shape {
        }
      }
    }
  }
  attr {
    key: "use_locking"
    value {
      b: true
    }
  }
  attr {
    key: "validate_shape"
    value {
      b: true
    }
  }
}
node {
  name: "global_step/read"
  op: "Identity"
  input: "global_step"
  attr {
    key: "T"
    value {
      type: DT_INT64
    }
  }
  attr {
    key: "_class"
    value {
      list {
        s: "loc:@global_step"
      }
    }
  }
  attr {
    key: "_output_shapes"
    value {
      list {
        shape {
        }
      }
    }
  }
}
node {
  name: "global_step/IsVariableInitialized"
  op: "IsVariableInitialized"
  input: "global_step"
  attr {
    key: "_class"
    value {
      list {
        s: "loc:@global_step"
      }
    }
  }
  attr {
    key: "_output_shapes"
    value {
      list {
        shape {
        }
      }
    }
  }
  attr {
    key: "dtype"
    value {
      type: DT_INT64
    }
  }
}
node {
  name: "global_step/cond/Switch"
  op: "Switch"
  input: "global_step/IsVariableInitialized"
  input: "global_step/IsVariableInitialized"
  attr {
    key: "T"
    value {
      type: DT_BOOL
    }
  }
  attr {
    key: "_output_shapes"
    value {
      list {
        shape {
        }
        shape {
        }
      }
    }
  }
}
node {
  name: "global_step/cond/switch_t"
  op: "Identity"
  input: "global_step/cond/Switch:1"
  attr {
    key: "T"
    value {
      type: DT_BOOL
    }
  }
  attr {
    key: "_output_shapes"
    value {
      list {
        shape {
        }
      }
    }
  }
}
node {
  name: "global_step/cond/switch_f"
  op: "Identity"
  input: "global_step/cond/Switch"
  attr {
    key: "T"
    value {
      type: DT_BOOL
    }
  }
  attr {
    key: "_output_shapes"
    value {
      list {
        shape {
        }
      }
    }
  }
}
node {
  name: "global_step/cond/pred_id"
  op: "Identity"
  input: "global_step/IsVariableInitialized"
  attr {
    key: "T"
    value {
      type: DT_BOOL
    }
  }
  attr {
    key: "_output_shapes"
    value {
      list {
        shape {
        }
      }
    }
  }
}
node {
  name: "global_step/cond/read"
  op: "Identity"
  input: "global_step/cond/read/Switch:1"
  attr {
    key: "T"
    value {
      type: DT_INT64
    }
  }
  attr {
    key: "_output_shapes"
    value {
      list {
        shape {
        }
      }
    }
  }
}
node {
  name: "global_step/cond/read/Switch"
  op: "RefSwitch"
  input: "global_step"
  input: "global_step/cond/pred_id"
  attr {
    key: "T"
    value {
      type: DT_INT64
    }
  }
  attr {
    key: "_class"
    value {
      list {
        s: "loc:@global_step"
      }
    }
  }
  attr {
    key: "_output_shapes"
    value {
      list {
        shape {
        }
        shape {
        }
      }
    }
  }
}
node {
  name: "global_step/cond/Switch_1"
  op: "Switch"
  input: "global_step/Initializer/zeros"
  input: "global_step/cond/pred_id"
  attr {
    key: "T"
    value {
      type: DT_INT64
    }
  }
  attr {
    key: "_class"
    value {
      list {
        s: "loc:@global_step"
      }
    }
  }
  attr {
    key: "_output_shapes"
    value {
      list {
        shape {
        }
        shape {
        }
      }
    }
  }
}
node {
  name: "global_step/cond/Merge"
  op: "Merge"
  input: "global_step/cond/Switch_1"
  input: "global_step/cond/read"
  attr {
    key: "N"
    value {
      i: 2
    }
  }
  attr {
    key: "T"
    value {
      type: DT_INT64
    }
  }
  attr {
    key: "_output_shapes"
    value {
      list {
        shape {
        }
        shape {
        }
      }
    }
  }
}
node {
  name: "global_step/add/y"
  op: "Const"
  attr {
    key: "_output_shapes"
    value {
      list {
        shape {
        }
      }
    }
  }
  attr {
    key: "dtype"
    value {
      type: DT_INT64
    }
  }
  attr {
    key: "value"
    value {
      tensor {
        dtype: DT_INT64
        tensor_shape {
        }
        int64_val: 0
      }
    }
  }
}
node {
  name: "global_step/add"
  op: "Add"
  input: "global_step/cond/Merge"
  input: "global_step/add/y"
  attr {
    key: "T"
    value {
      type: DT_INT64
    }
  }
  attr {
    key: "_output_shapes"
    value {
      list {
        shape {
        }
      }
    }
  }
}
node {
  name: "read_batch_features/file_name_queue/input"
  op: "Const"
  device: "/device:CPU:0"
  attr {
    key: "_output_shapes"
    value {
      list {
        shape {
          dim {
            size: 1
          }
        }
      }
    }
  }
  attr {
    key: "dtype"
    value {
      type: DT_STRING
    }
  }
  attr {
    key: "value"
    value {
      tensor {
        dtype: DT_STRING
        tensor_shape {
          dim {
            size: 1
          }
        }
        string_val: "…"
      }
    }
  }
}
node {
  name: "read_batch_features/file_name_queue/Size"
  op: "Const"
  device: "/device:CPU:0"
  attr {
    key: "_output_shapes"
    value {
      list {
        shape {
        }
      }
    }
  }
  attr {
    key: "dtype"
    value {
      type: DT_INT32
    }
  }
  attr {
    key: "value"
    value {
      tensor {
        dtype: DT_INT32
        tensor_shape {
        }
        int_val: 1
      }
    }
  }
}
node {
  name: "read_batch_features/file_name_queue/Greater/y"
  op: "Const"
  device: "/device:CPU:0"
  attr {
    key: "_output_shapes"
    value {
      list {
        shape {
        }
      }
    }
  }
  attr {
    key: "dtype"
    value {
      type: DT_INT32
    }
  }
  attr {
    key: "value"
    value {
      tensor {
        dtype: DT_INT32
        tensor_shape {
        }
        int_val: 0
      }
    }
  }
}
node {
  name: "read_batch_features/file_name_queue/Greater"
  op: "Greater"
  input: "read_batch_features/file_name_queue/Size"
  input: "read_batch_features/file_name_queue/Greater/y"
  device: "/device:CPU:0"
  attr {
    key: "T"
    value {
      type: DT_INT32
    }
  }
  attr {
    key: "_output_shapes"
    value {
      list {
        shape {
        }
      }
    }
  }
}
node {
  name: "read_batch_features/file_name_queue/Assert/Const"
  op: "Const"
  device: "/device:CPU:0"
  attr {
    key: "_output_shapes"
    value {
      list {
        shape {
        }
      }
    }
  }
  attr {
    key: "dtype"
    value {
      type: DT_STRING
    }
  }
  attr {
    key: "value"
    value {
      tensor {
        dtype: DT_STRING
        tensor_shape {
        }
        string_val: "string_input_producer requires a non-null input tensor"
      }
    }
  }
}
node {
  name: "read_batch_features/file_name_queue/Assert/Assert/data_0"
  op: "Const"
  device: "/device:CPU:0"
  attr {
    key: "_output_shapes"
    value {
      list {
        shape {
        }
      }
    }
  }
  attr {
    key: "dtype"
    value {
      type: DT_STRING
    }
  }
  attr {
    key: "value"
    value {
      tensor {
        dtype: DT_STRING
        tensor_shape {
        }
        string_val: "string_input_producer requires a non-null input tensor"
      }
    }
  }
}
node {
  name: "read_batch_features/file_name_queue/Assert/Assert"
  op: "Assert"
  input: "read_batch_features/file_name_queue/Greater"
  input: "read_batch_features/file_name_queue/Assert/Assert/data_0"
  device: "/device:CPU:0"
  attr {
    key: "T"
    value {
      list {
        type: DT_STRING
      }
    }
  }
  attr {
    key: "summarize"
    value {
      i: 3
    }
  }
}
node {
  name: "read_batch_features/file_name_queue/Identity"
  op: "Identity"
  input: "read_batch_features/file_name_queue/input"
  input: "^read_batch_features/file_name_queue/Assert/Assert"
  device: "/device:CPU:0"
  attr {
    key: "T"
    value {
      type: DT_STRING
    }
  }
  attr {
    key: "_output_shapes"
    value {
      list {
        shape {
          dim {
            size: 1
          }
        }
      }
    }
  }
}
node {
  name: "read_batch_features/file_name_queue/RandomShuffle"
  op: "RandomShuffle"
  input: "read_batch_features/file_name_queue/Identity"
  device: "/device:CPU:0"
  attr {
    key: "T"
    value {
      type: DT_STRING
    }
  }
  attr {
    key: "_output_shapes"
    value {
      list {
        shape {
          dim {
            size: 1
          }
        }
      }
    }
  }
  attr {
    key: "seed"
    value {
      i: 0
    }
  }
  attr {
    key: "seed2"
    value {
      i: 0
    }
  }
}
node {
  name: "read_batch_features/file_name_queue"
  op: "FIFOQueueV2"
  device: "/device:CPU:0"
  attr {
    key: "_output_shapes"
    value {
      list {
        shape {
        }
      }
    }
  }
  attr {
    key: "capacity"
    value {
      i: 32
    }
  }
  attr {
    key: "component_types"
    value {
      list {
        type: DT_STRING
      }
    }
  }
  attr {
    key: "container"
    value {
      s: ""
    }
  }
  attr {
    key: "shapes"
    value {
      list {
        shape {
        }
      }
    }
  }
  attr {
    key: "shared_name"
    value {
      s: ""
    }
  }
}
node {
  name: "read_batch_features/file_name_queue/file_name_queue_EnqueueMany"
  op: "QueueEnqueueManyV2"
  input: "read_batch_features/file_name_queue"
  input: "read_batch_features/file_name_queue/RandomShuffle"
  device: "/device:CPU:0"
  attr {
    key: "Tcomponents"
    value {
      list {
        type: DT_STRING
      }
    }
  }
  attr {
    key: "timeout_ms"
    value {
      i: -1
    }
  }
}
node {
  name: "read_batch_features/file_name_queue/file_name_queue_Close"
  op: "QueueCloseV2"
  input: "read_batch_features/file_name_queue"
  device: "/device:CPU:0"
  attr {
    key: "cancel_pending_enqueues"
    value {
      b: false
    }
  }
}
node {
  name: "read_batch_features/file_name_queue/file_name_queue_Close_1"
  op: "QueueCloseV2"
  input: "read_batch_features/file_name_queue"
  device: "/device:CPU:0"
  attr {
    key: "cancel_pending_enqueues"
    value {
      b: true
    }
  }
}
node {
  name: "read_batch_features/file_name_queue/file_name_queue_Size"
  op: "QueueSizeV2"
  input: "read_batch_features/file_name_queue"
  device: "/device:CPU:0"
  attr {
    key: "_output_shapes"
    value {
      list {
        shape {
        }
      }
    }
  }
}
node {
  name: "read_batch_features/file_name_queue/ToFloat"
  op: "Cast"
  input: "read_batch_features/file_name_queue/file_name_queue_Size"
  device: "/device:CPU:0"
  attr {
    key: "DstT"
    value {
      type: DT_FLOAT
    }
  }
  attr {
    key: "SrcT"
    value {
      type: DT_INT32
    }
  }
  attr {
    key: "_output_shapes"
    value {
      list {
        shape {
        }
      }
    }
  }
}
node {
  name: "read_batch_features/file_name_queue/mul/y"
  op: "Const"
  device: "/device:CPU:0"
  attr {
    key: "_output_shapes"
    value {
      list {
        shape {
        }
      }
    }
  }
  attr {
    key: "dtype"
    value {
      type: DT_FLOAT
    }
  }
  attr {
    key: "value"
    value {
      tensor {
        dtype: DT_FLOAT
        tensor_shape {
        }
        float_val: 0.03125
      }
    }
  }
}
node {
  name: "read_batch_features/file_name_queue/mul"
  op: "Mul"
  input: "read_batch_features/file_name_queue/ToFloat"
  input: "read_batch_features/file_name_queue/mul/y"
  device: "/device:CPU:0"
  attr {
    key: "T"
    value {
      type: DT_FLOAT
    }
  }
  attr {
    key: "_output_shapes"
    value {
      list {
        shape {
        }
      }
    }
  }
}
node {
  name: "read_batch_features/file_name_queue/fraction_of_32_full/tags"
  op: "Const"
  device: "/device:CPU:0"
  attr {
    key: "_output_shapes"
    value {
      list {
        shape {
        }
      }
    }
  }
  attr {
    key: "dtype"
    value {
      type: DT_STRING
    }
  }
  attr {
    key: "value"
    value {
      tensor {
        dtype: DT_STRING
        tensor_shape {
        }
        string_val: "read_batch_features/file_name_queue/fraction_of_32_full"
      }
    }
  }
}
node {
  name: "read_batch_features/file_name_queue/fraction_of_32_full"
  op: "ScalarSummary"
  input: "read_batch_features/file_name_queue/fraction_of_32_full/tags"
  input: "read_batch_features/file_name_queue/mul"
  device: "/device:CPU:0"
  attr {
    key: "T"
    value {
      type: DT_FLOAT
    }
  }
  attr {
    key: "_output_shapes"
    value {
      list {
        shape {
        }
      }
    }
  }
}
node {
  name: "read_batch_features/read/TFRecordReaderV2"
  op: "TFRecordReaderV2"
  device: "/device:CPU:0"
  attr {
    key: "_output_shapes"
    value {
      list {
        shape {
        }
      }
    }
  }
  attr {
    key: "compression_type"
    value {
      s: "GZIP"
    }
  }
  attr {
    key: "container"
    value {
      s: ""
    }
  }
  attr {
    key: "shared_name"
    value {
      s: ""
    }
  }
}
node {
  name: "read_batch_features/read/ReaderReadUpToV2/num_records"
  op: "Const"
  device: "/device:CPU:0"
  attr {
    key: "_output_shapes"
    value {
      list {
        shape {
        }
      }
    }
  }
  attr {
    key: "dtype"
    value {
      type: DT_INT64
    }
  }
  attr {
    key: "value"
    value {
      tensor {
        dtype: DT_INT64
        tensor_shape {
        }
        int64_val: 303
      }
    }
  }
}
node {
  name: "read_batch_features/read/ReaderReadUpToV2"
  op: "ReaderReadUpToV2"
  input: "read_batch_features/read/TFRecordReaderV2"
  input: "read_batch_features/file_name_queue"
  input: "read_batch_features/read/ReaderReadUpToV2/num_records"
  device: "/device:CPU:0"
  attr {
    key: "_output_shapes"
    value {
      list {
        shape {
          dim {
            size: -1
          }
        }
        shape {
          dim {
            size: -1
          }
        }
      }
    }
  }
}
node {
  name: "read_batch_features/Const"
  op: "Const"
  device: "/device:CPU:0"
  attr {
    key: "_output_shapes"
    value {
      list {
        shape {
        }
      }
    }
  }
  attr {
    key: "dtype"
    value {
      type: DT_BOOL
    }
  }
  attr {
    key: "value"
    value {
      tensor {
        dtype: DT_BOOL
        tensor_shape {
        }
        bool_val: true
      }
    }
  }
}
node {
  name: "read_batch_features/random_shuffle_queue"
  op: "RandomShuffleQueueV2"
  device: "/device:CPU:0"
  attr {
    key: "_output_shapes"
    value {
      list {
        shape {
        }
      }
    }
  }
  attr {
    key: "capacity"
    value {
      i: 10000
    }
  }
  attr {
    key: "component_types"
    value {
      list {
        type: DT_STRING
        type: DT_STRING
      }
    }
  }
  attr {
    key: "container"
    value {
      s: ""
    }
  }
  attr {
    key: "min_after_dequeue"
    value {
      i: 9091
    }
  }
  attr {
    key: "seed"
    value {
      i: 0
    }
  }
  attr {
    key: "seed2"
    value {
      i: 0
    }
  }
  attr {
    key: "shapes"
    value {
      list {
        shape {
        }
        shape {
        }
      }
    }
  }
  attr {
    key: "shared_name"
    value {
      s: ""
    }
  }
}
node {
  name: "read_batch_features/random_shuffle_queue_EnqueueMany"
  op: "QueueEnqueueManyV2"
  input: "read_batch_features/random_shuffle_queue"
  input: "read_batch_features/read/ReaderReadUpToV2"
  input: "read_batch_features/read/ReaderReadUpToV2:1"
  device: "/device:CPU:0"
  attr {
    key: "Tcomponents"
    value {
      list {
        type: DT_STRING
        type: DT_STRING
      }
    }
  }
  attr {
    key: "timeout_ms"
    value {
      i: -1
    }
  }
}
node {
  name: "read_batch_features/random_shuffle_queue_Close"
  op: "QueueCloseV2"
  input: "read_batch_features/random_shuffle_queue"
  device: "/device:CPU:0"
  attr {
    key: "cancel_pending_enqueues"
    value {
      b: false
    }
  }
}
node {
  name: "read_batch_features/random_shuffle_queue_Close_1"
  op: "QueueCloseV2"
  input: "read_batch_features/random_shuffle_queue"
  device: "/device:CPU:0"
  attr {
    key: "cancel_pending_enqueues"
    value {
      b: true
    }
  }
}
node {
  name: "read_batch_features/random_shuffle_queue_Size"
  op: "QueueSizeV2"
  input: "read_batch_features/random_shuffle_queue"
  device: "/device:CPU:0"
  attr {
    key: "_output_shapes"
    value {
      list {
        shape {
        }
      }
    }
  }
}
node {
  name: "read_batch_features/sub/y"
  op: "Const"
  device: "/device:CPU:0"
  attr {
    key: "_output_shapes"
    value {
      list {
        shape {
        }
      }
    }
  }
  attr {
    key: "dtype"
    value {
      type: DT_INT32
    }
  }
  attr {
    key: "value"
    value {
      tensor {
        dtype: DT_INT32
        tensor_shape {
        }
        int_val: 9091
      }
    }
  }
}
node {
  name: "read_batch_features/sub"
  op: "Sub"
  input: "read_batch_features/random_shuffle_queue_Size"
  input: "read_batch_features/sub/y"
  device: "/device:CPU:0"
  attr {
    key: "T"
    value {
      type: DT_INT32
    }
  }
  attr {
    key: "_output_shapes"
    value {
      list {
        shape {
        }
      }
    }
  }
}
node {
  name: "read_batch_features/Maximum/x"
  op: "Const"
  device: "/device:CPU:0"
  attr {
    key: "_output_shapes"
    value {
      list {
        shape {
        }
      }
    }
  }
  attr {
    key: "dtype"
    value {
      type: DT_INT32
    }
  }
  attr {
    key: "value"
    value {
      tensor {
        dtype: DT_INT32
        tensor_shape {
        }
        int_val: 0
      }
    }
  }
}
node {
  name: "read_batch_features/Maximum"
  op: "Maximum"
  input: "read_batch_features/Maximum/x"
  input: "read_batch_features/sub"
  device: "/device:CPU:0"
  attr {
    key: "T"
    value {
      type: DT_INT32
    }
  }
  attr {
    key: "_output_shapes"
    value {
      list {
        shape {
        }
      }
    }
  }
}
node {
  name: "read_batch_features/ToFloat"
  op: "Cast"
  input: "read_batch_features/Maximum"
  device: "/device:CPU:0"
  attr {
    key: "DstT"
    value {
      type: DT_FLOAT
    }
  }
  attr {
    key: "SrcT"
    value {
      type: DT_INT32
    }
  }
  attr {
    key: "_output_shapes"
    value {
      list {
        shape {
        }
      }
    }
  }
}
node {
  name: "read_batch_features/mul/y"
  op: "Const"
  device: "/device:CPU:0"
  attr {
    key: "_output_shapes"
    value {
      list {
        shape {
        }
      }
    }
  }
  attr {
    key: "dtype"
    value {
      type: DT_FLOAT
    }
  }
  attr {
    key: "value"
    value {
      tensor {
        dtype: DT_FLOAT
        tensor_shape {
        }
        float_val: 0.00110011000652
      }
    }
  }
}
node {
  name: "read_batch_features/mul"
  op: "Mul"
  input: "read_batch_features/ToFloat"
  input: "read_batch_features/mul/y"
  device: "/device:CPU:0"
  attr {
    key: "T"
    value {
      type: DT_FLOAT
    }
  }
  attr {
    key: "_output_shapes"
    value {
      list {
        shape {
        }
      }
    }
  }
}
node {
  name: "read_batch_features/fraction_over_9091_of_909_full/tags"
  op: "Const"
  device: "/device:CPU:0"
  attr {
    key: "_output_shapes"
    value {
      list {
        shape {
        }
      }
    }
  }
  attr {
    key: "dtype"
    value {
      type: DT_STRING
    }
  }
  attr {
    key: "value"
    value {
      tensor {
        dtype: DT_STRING
        tensor_shape {
        }
        string_val: "read_batch_features/fraction_over_9091_of_909_full"
      }
    }
  }
}
node {
  name: "read_batch_features/fraction_over_9091_of_909_full"
  op: "ScalarSummary"
  input: "read_batch_features/fraction_over_9091_of_909_full/tags"
  input: "read_batch_features/mul"
  device: "/device:CPU:0"
  attr {
    key: "T"
    value {
      type: DT_FLOAT
    }
  }
  attr {
    key: "_output_shapes"
    value {
      list {
        shape {
        }
      }
    }
  }
}
node {
  name: "read_batch_features/n"
  op: "Const"
  device: "/device:CPU:0"
  attr {
    key: "_output_shapes"
    value {
      list {
        shape {
        }
      }
    }
  }
  attr {
    key: "dtype"
    value {
      type: DT_INT32
    }
  }
  attr {
    key: "value"
    value {
      tensor {
        dtype: DT_INT32
        tensor_shape {
        }
        int_val: 303
      }
    }
  }
}
node {
  name: "read_batch_features"
  op: "QueueDequeueManyV2"
  input: "read_batch_features/random_shuffle_queue"
  input: "read_batch_features/n"
  device: "/device:CPU:0"
  attr {
    key: "_output_shapes"
    value {
      list {
        shape {
          dim {
            size: 303
          }
        }
        shape {
          dim {
            size: 303
          }
        }
      }
    }
  }
  attr {
    key: "component_types"
    value {
      list {
        type: DT_STRING
        type: DT_STRING
      }
    }
  }
  attr {
    key: "timeout_ms"
    value {
      i: -1
    }
  }
}
node {
  name: "read_batch_features/ParseExample/Const"
  op: "Const"
  device: "/device:CPU:0"
  attr {
    key: "_output_shapes"
    value {
      list {
        shape {
          dim {
          }
        }
      }
    }
  }
  attr {
    key: "dtype"
    value {
      type: DT_FLOAT
    }
  }
  attr {
    key: "value"
    value {
      tensor {
        dtype: DT_FLOAT
        tensor_shape {
          dim {
          }
        }
      }
    }
  }
}
node {
  name: "read_batch_features/ParseExample/Const_1"
  op: "Const"
  device: "/device:CPU:0"
  attr {
    key: "_output_shapes"
    value {
      list {
        shape {
          dim {
          }
        }
      }
    }
  }
  attr {
    key: "dtype"
    value {
      type: DT_FLOAT
    }
  }
  attr {
    key: "value"
    value {
      tensor {
        dtype: DT_FLOAT
        tensor_shape {
          dim {
          }
        }
      }
    }
  }
}
node {
  name: "read_batch_features/ParseExample/Const_2"
  op: "Const"
  device: "/device:CPU:0"
  attr {
    key: "_output_shapes"
    value {
      list {
        shape {
          dim {
          }
        }
      }
    }
  }
  attr {
    key: "dtype"
    value {
      type: DT_FLOAT
    }
  }
  attr {
    key: "value"
    value {
      tensor {
        dtype: DT_FLOAT
        tensor_shape {
          dim {
          }
        }
      }
    }
  }
}
node {
  name: "read_batch_features/ParseExample/Const_3"
  op: "Const"
  device: "/device:CPU:0"
  attr {
    key: "_output_shapes"
    value {
      list {
        shape {
          dim {
          }
        }
      }
    }
  }
  attr {
    key: "dtype"
    value {
      type: DT_FLOAT
    }
  }
  attr {
    key: "value"
    value {
      tensor {
        dtype: DT_FLOAT
        tensor_shape {
          dim {
          }
        }
      }
    }
  }
}
node {
  name: "read_batch_features/ParseExample/Const_4"
  op: "Const"
  device: "/device:CPU:0"
  attr {
    key: "_output_shapes"
    value {
      list {
        shape {
          dim {
          }
        }
      }
    }
  }
  attr {
    key: "dtype"
    value {
      type: DT_FLOAT
    }
  }
  attr {
    key: "value"
    value {
      tensor {
        dtype: DT_FLOAT
        tensor_shape {
          dim {
          }
        }
      }
    }
  }
}
node {
  name: "read_batch_features/ParseExample/Const_5"
  op: "Const"
  device: "/device:CPU:0"
  attr {
    key: "_output_shapes"
    value {
      list {
        shape {
          dim {
          }
        }
      }
    }
  }
  attr {
    key: "dtype"
    value {
      type: DT_FLOAT
    }
  }
  attr {
    key: "value"
    value {
      tensor {
        dtype: DT_FLOAT
        tensor_shape {
          dim {
          }
        }
      }
    }
  }
}
node {
  name: "read_batch_features/ParseExample/Const_6"
  op: "Const"
  device: "/device:CPU:0"
  attr {
    key: "_output_shapes"
    value {
      list {
        shape {
          dim {
          }
        }
      }
    }
  }
  attr {
    key: "dtype"
    value {
      type: DT_FLOAT
    }
  }
  attr {
    key: "value"
    value {
      tensor {
        dtype: DT_FLOAT
        tensor_shape {
          dim {
          }
        }
      }
    }
  }
}
node {
  name: "read_batch_features/ParseExample/Const_7"
  op: "Const"
  device: "/device:CPU:0"
  attr {
    key: "_output_shapes"
    value {
      list {
        shape {
          dim {
          }
        }
      }
    }
  }
  attr {
    key: "dtype"
    value {
      type: DT_INT64
    }
  }
  attr {
    key: "value"
    value {
      tensor {
        dtype: DT_INT64
        tensor_shape {
          dim {
          }
        }
      }
    }
  }
}
node {
  name: "read_batch_features/ParseExample/Const_8"
  op: "Const"
  device: "/device:CPU:0"
  attr {
    key: "_output_shapes"
    value {
      list {
        shape {
          dim {
          }
        }
      }
    }
  }
  attr {
    key: "dtype"
    value {
      type: DT_INT64
    }
  }
  attr {
    key: "value"
    value {
      tensor {
        dtype: DT_INT64
        tensor_shape {
          dim {
          }
        }
      }
    }
  }
}
node {
  name: "read_batch_features/ParseExample/Const_9"
  op: "Const"
  device: "/device:CPU:0"
  attr {
    key: "_output_shapes"
    value {
      list {
        shape {
          dim {
          }
        }
      }
    }
  }
  attr {
    key: "dtype"
    value {
      type: DT_FLOAT
    }
  }
  attr {
    key: "value"
    value {
      tensor {
        dtype: DT_FLOAT
        tensor_shape {
          dim {
          }
        }
      }
    }
  }
}
node {
  name: "read_batch_features/ParseExample/Const_10"
  op: "Const"
  device: "/device:CPU:0"
  attr {
    key: "_output_shapes"
    value {
      list {
        shape {
          dim {
          }
        }
      }
    }
  }
  attr {
    key: "dtype"
    value {
      type: DT_STRING
    }
  }
  attr {
    key: "value"
    value {
      tensor {
        dtype: DT_STRING
        tensor_shape {
          dim {
          }
        }
      }
    }
  }
}
node {
  name: "read_batch_features/ParseExample/Const_11"
  op: "Const"
  device: "/device:CPU:0"
  attr {
    key: "_output_shapes"
    value {
      list {
        shape {
          dim {
          }
        }
      }
    }
  }
  attr {
    key: "dtype"
    value {
      type: DT_FLOAT
    }
  }
  attr {
    key: "value"
    value {
      tensor {
        dtype: DT_FLOAT
        tensor_shape {
          dim {
          }
        }
      }
    }
  }
}
node {
  name: "read_batch_features/ParseExample/Const_12"
  op: "Const"
  device: "/device:CPU:0"
  attr {
    key: "_output_shapes"
    value {
      list {
        shape {
          dim {
          }
        }
      }
    }
  }
  attr {
    key: "dtype"
    value {
      type: DT_FLOAT
    }
  }
  attr {
    key: "value"
    value {
      tensor {
        dtype: DT_FLOAT
        tensor_shape {
          dim {
          }
        }
      }
    }
  }
}
node {
  name: "read_batch_features/ParseExample/Const_13"
  op: "Const"
  device: "/device:CPU:0"
  attr {
    key: "_output_shapes"
    value {
      list {
        shape {
          dim {
          }
        }
      }
    }
  }
  attr {
    key: "dtype"
    value {
      type: DT_STRING
    }
  }
  attr {
    key: "value"
    value {
      tensor {
        dtype: DT_STRING
        tensor_shape {
          dim {
          }
        }
      }
    }
  }
}
node {
  name: "read_batch_features/ParseExample/Const_14"
  op: "Const"
  device: "/device:CPU:0"
  attr {
    key: "_output_shapes"
    value {
      list {
        shape {
          dim {
          }
        }
      }
    }
  }
  attr {
    key: "dtype"
    value {
      type: DT_INT64
    }
  }
  attr {
    key: "value"
    value {
      tensor {
        dtype: DT_INT64
        tensor_shape {
          dim {
          }
        }
      }
    }
  }
}
node {
  name: "read_batch_features/ParseExample/Const_15"
  op: "Const"
  device: "/device:CPU:0"
  attr {
    key: "_output_shapes"
    value {
      list {
        shape {
          dim {
          }
        }
      }
    }
  }
  attr {
    key: "dtype"
    value {
      type: DT_INT64
    }
  }
  attr {
    key: "value"
    value {
      tensor {
        dtype: DT_INT64
        tensor_shape {
          dim {
          }
        }
      }
    }
  }
}
node {
  name: "read_batch_features/ParseExample/Const_16"
  op: "Const"
  device: "/device:CPU:0"
  attr {
    key: "_output_shapes"
    value {
      list {
        shape {
          dim {
          }
        }
      }
    }
  }
  attr {
    key: "dtype"
    value {
      type: DT_INT64
    }
  }
  attr {
    key: "value"
    value {
      tensor {
        dtype: DT_INT64
        tensor_shape {
          dim {
          }
        }
      }
    }
  }
}
node {
  name: "read_batch_features/ParseExample/Const_17"
  op: "Const"
  device: "/device:CPU:0"
  attr {
    key: "_output_shapes"
    value {
      list {
        shape {
          dim {
          }
        }
      }
    }
  }
  attr {
    key: "dtype"
    value {
      type: DT_INT64
    }
  }
  attr {
    key: "value"
    value {
      tensor {
        dtype: DT_INT64
        tensor_shape {
          dim {
          }
        }
      }
    }
  }
}
node {
  name: "read_batch_features/ParseExample/Const_18"
  op: "Const"
  device: "/device:CPU:0"
  attr {
    key: "_output_shapes"
    value {
      list {
        shape {
          dim {
          }
        }
      }
    }
  }
  attr {
    key: "dtype"
    value {
      type: DT_INT64
    }
  }
  attr {
    key: "value"
    value {
      tensor {
        dtype: DT_INT64
        tensor_shape {
          dim {
          }
        }
      }
    }
  }
}
node {
  name: "read_batch_features/ParseExample/Const_19"
  op: "Const"
  device: "/device:CPU:0"
  attr {
    key: "_output_shapes"
    value {
      list {
        shape {
          dim {
          }
        }
      }
    }
  }
  attr {
    key: "dtype"
    value {
      type: DT_INT64
    }
  }
  attr {
    key: "value"
    value {
      tensor {
        dtype: DT_INT64
        tensor_shape {
          dim {
          }
        }
      }
    }
  }
}
node {
  name: "read_batch_features/ParseExample/Const_20"
  op: "Const"
  device: "/device:CPU:0"
  attr {
    key: "_output_shapes"
    value {
      list {
        shape {
          dim {
          }
        }
      }
    }
  }
  attr {
    key: "dtype"
    value {
      type: DT_INT64
    }
  }
  attr {
    key: "value"
    value {
      tensor {
        dtype: DT_INT64
        tensor_shape {
          dim {
          }
        }
      }
    }
  }
}
node {
  name: "read_batch_features/ParseExample/Const_21"
  op: "Const"
  device: "/device:CPU:0"
  attr {
    key: "_output_shapes"
    value {
      list {
        shape {
          dim {
          }
        }
      }
    }
  }
  attr {
    key: "dtype"
    value {
      type: DT_INT64
    }
  }
  attr {
    key: "value"
    value {
      tensor {
        dtype: DT_INT64
        tensor_shape {
          dim {
          }
        }
      }
    }
  }
}
node {
  name: "read_batch_features/ParseExample/Const_22"
  op: "Const"
  device: "/device:CPU:0"
  attr {
    key: "_output_shapes"
    value {
      list {
        shape {
          dim {
          }
        }
      }
    }
  }
  attr {
    key: "dtype"
    value {
      type: DT_INT64
    }
  }
  attr {
    key: "value"
    value {
      tensor {
        dtype: DT_INT64
        tensor_shape {
          dim {
          }
        }
      }
    }
  }
}
node {
  name: "read_batch_features/ParseExample/Const_23"
  op: "Const"
  device: "/device:CPU:0"
  attr {
    key: "_output_shapes"
    value {
      list {
        shape {
          dim {
          }
        }
      }
    }
  }
  attr {
    key: "dtype"
    value {
      type: DT_INT64
    }
  }
  attr {
    key: "value"
    value {
      tensor {
        dtype: DT_INT64
        tensor_shape {
          dim {
          }
        }
      }
    }
  }
}
node {
  name: "read_batch_features/ParseExample/Const_24"
  op: "Const"
  device: "/device:CPU:0"
  attr {
    key: "_output_shapes"
    value {
      list {
        shape {
          dim {
          }
        }
      }
    }
  }
  attr {
    key: "dtype"
    value {
      type: DT_FLOAT
    }
  }
  attr {
    key: "value"
    value {
      tensor {
        dtype: DT_FLOAT
        tensor_shape {
          dim {
          }
        }
      }
    }
  }
}
node {
  name: "read_batch_features/ParseExample/Const_25"
  op: "Const"
  device: "/device:CPU:0"
  attr {
    key: "_output_shapes"
    value {
      list {
        shape {
          dim {
          }
        }
      }
    }
  }
  attr {
    key: "dtype"
    value {
      type: DT_STRING
    }
  }
  attr {
    key: "value"
    value {
      tensor {
        dtype: DT_STRING
        tensor_shape {
          dim {
          }
        }
      }
    }
  }
}
node {
  name: "read_batch_features/ParseExample/Const_26"
  op: "Const"
  device: "/device:CPU:0"
  attr {
    key: "_output_shapes"
    value {
      list {
        shape {
          dim {
          }
        }
      }
    }
  }
  attr {
    key: "dtype"
    value {
      type: DT_FLOAT
    }
  }
  attr {
    key: "value"
    value {
      tensor {
        dtype: DT_FLOAT
        tensor_shape {
          dim {
          }
        }
      }
    }
  }
}
node {
  name: "read_batch_features/ParseExample/Const_27"
  op: "Const"
  device: "/device:CPU:0"
  attr {
    key: "_output_shapes"
    value {
      list {
        shape {
          dim {
          }
        }
      }
    }
  }
  attr {
    key: "dtype"
    value {
      type: DT_FLOAT
    }
  }
  attr {
    key: "value"
    value {
      tensor {
        dtype: DT_FLOAT
        tensor_shape {
          dim {
          }
        }
      }
    }
  }
}
node {
  name: "read_batch_features/ParseExample/Const_28"
  op: "Const"
  device: "/device:CPU:0"
  attr {
    key: "_output_shapes"
    value {
      list {
        shape {
          dim {
          }
        }
      }
    }
  }
  attr {
    key: "dtype"
    value {
      type: DT_FLOAT
    }
  }
  attr {
    key: "value"
    value {
      tensor {
        dtype: DT_FLOAT
        tensor_shape {
          dim {
          }
        }
      }
    }
  }
}
node {
  name: "read_batch_features/ParseExample/Const_29"
  op: "Const"
  device: "/device:CPU:0"
  attr {
    key: "_output_shapes"
    value {
      list {
        shape {
          dim {
          }
        }
      }
    }
  }
  attr {
    key: "dtype"
    value {
      type: DT_FLOAT
    }
  }
  attr {
    key: "value"
    value {
      tensor {
        dtype: DT_FLOAT
        tensor_shape {
          dim {
          }
        }
      }
    }
  }
}
node {
  name: "read_batch_features/ParseExample/Const_30"
  op: "Const"
  device: "/device:CPU:0"
  attr {
    key: "_output_shapes"
    value {
      list {
        shape {
          dim {
          }
        }
      }
    }
  }
  attr {
    key: "dtype"
    value {
      type: DT_STRING
    }
  }
  attr {
    key: "value"
    value {
      tensor {
        dtype: DT_STRING
        tensor_shape {
          dim {
          }
        }
      }
    }
  }
}
node {
  name: "read_batch_features/ParseExample/Const_31"
  op: "Const"
  device: "/device:CPU:0"
  attr {
    key: "_output_shapes"
    value {
      list {
        shape {
          dim {
          }
        }
      }
    }
  }
  attr {
    key: "dtype"
    value {
      type: DT_FLOAT
    }
  }
  attr {
    key: "value"
    value {
      tensor {
        dtype: DT_FLOAT
        tensor_shape {
          dim {
          }
        }
      }
    }
  }
}
node {
  name: "read_batch_features/ParseExample/Const_32"
  op: "Const"
  device: "/device:CPU:0"
  attr {
    key: "_output_shapes"
    value {
      list {
        shape {
          dim {
          }
        }
      }
    }
  }
  attr {
    key: "dtype"
    value {
      type: DT_FLOAT
    }
  }
  attr {
    key: "value"
    value {
      tensor {
        dtype: DT_FLOAT
        tensor_shape {
          dim {
          }
        }
      }
    }
  }
}
node {
  name: "read_batch_features/ParseExample/Const_33"
  op: "Const"
  device: "/device:CPU:0"
  attr {
    key: "_output_shapes"
    value {
      list {
        shape {
          dim {
          }
        }
      }
    }
  }
  attr {
    key: "dtype"
    value {
      type: DT_FLOAT
    }
  }
  attr {
    key: "value"
    value {
      tensor {
        dtype: DT_FLOAT
        tensor_shape {
          dim {
          }
        }
      }
    }
  }
}
node {
  name: "read_batch_features/ParseExample/Const_34"
  op: "Const"
  device: "/device:CPU:0"
  attr {
    key: "_output_shapes"
    value {
      list {
        shape {
          dim {
          }
        }
      }
    }
  }
  attr {
    key: "dtype"
    value {
      type: DT_FLOAT
    }
  }
  attr {
    key: "value"
    value {
      tensor {
        dtype: DT_FLOAT
        tensor_shape {
          dim {
          }
        }
      }
    }
  }
}
node {
  name: "read_batch_features/ParseExample/ParseExample/names"
  op: "Const"
  device: "/device:CPU:0"
  attr {
    key: "_output_shapes"
    value {
      list {
        shape {
          dim {
          }
        }
      }
    }
  }
  attr {
    key: "dtype"
    value {
      type: DT_STRING
    }
  }
  attr {
    key: "value"
    value {
      tensor {
        dtype: DT_STRING
        tensor_shape {
          dim {
          }
        }
      }
    }
  }
}
node {
  name: "read_batch_features/ParseExample/ParseExample/dense_keys_0"
  op: "Const"
  device: "/device:CPU:0"
  attr {
    key: "_output_shapes"
    value {
      list {
        shape {
        }
      }
    }
  }
  attr {
    key: "dtype"
    value {
      type: DT_STRING
    }
  }
  attr {
    key: "value"
    value {
      tensor {
        dtype: DT_STRING
        tensor_shape {
        }
        string_val: "activity"
      }
    }
  }
}
node {
  name: "read_batch_features/ParseExample/ParseExample/dense_keys_1"
  op: "Const"
  device: "/device:CPU:0"
  attr {
    key: "_output_shapes"
    value {
      list {
        shape {
        }
      }
    }
  }
  attr {
    key: "dtype"
    value {
      type: DT_STRING
    }
  }
  attr {
    key: "value"
    value {
      tensor {
        dtype: DT_STRING
        tensor_shape {
        }
        string_val: "age"
      }
    }
  }
}
node {
  name: "read_batch_features/ParseExample/ParseExample/dense_keys_2"
  op: "Const"
  device: "/device:CPU:0"
  attr {
    key: "_output_shapes"
    value {
      list {
        shape {
        }
      }
    }
  }
  attr {
    key: "dtype"
    value {
      type: DT_STRING
    }
  }
  attr {
    key: "value"
    value {
      tensor {
        dtype: DT_STRING
        tensor_shape {
        }
        string_val: "artistic"
      }
    }
  }
}
node {
  name: "read_batch_features/ParseExample/ParseExample/dense_keys_3"
  op: "Const"
  device: "/device:CPU:0"
  attr {
    key: "_output_shapes"
    value {
      list {
        shape {
        }
      }
    }
  }
  attr {
    key: "dtype"
    value {
      type: DT_STRING
    }
  }
  attr {
    key: "value"
    value {
      tensor {
        dtype: DT_STRING
        tensor_shape {
        }
        string_val: "concentration"
      }
    }
  }
}
node {
  name: "read_batch_features/ParseExample/ParseExample/dense_keys_4"
  op: "Const"
  device: "/device:CPU:0"
  attr {
    key: "_output_shapes"
    value {
      list {
        shape {
        }
      }
    }
  }
  attr {
    key: "dtype"
    value {
      type: DT_STRING
    }
  }
  attr {
    key: "value"
    value {
      tensor {
        dtype: DT_STRING
        tensor_shape {
        }
        string_val: "engagement"
      }
    }
  }
}
node {
  name: "read_batch_features/ParseExample/ParseExample/dense_keys_5"
  op: "Const"
  device: "/device:CPU:0"
  attr {
    key: "_output_shapes"
    value {
      list {
        shape {
        }
      }
    }
  }
  attr {
    key: "dtype"
    value {
      type: DT_STRING
    }
  }
  attr {
    key: "value"
    value {
      tensor {
        dtype: DT_STRING
        tensor_shape {
        }
        string_val: "familiarity"
      }
    }
  }
}
node {
  name: "read_batch_features/ParseExample/ParseExample/dense_keys_6"
  op: "Const"
  device: "/device:CPU:0"
  attr {
    key: "_output_shapes"
    value {
      list {
        shape {
        }
      }
    }
  }
  attr {
    key: "dtype"
    value {
      type: DT_STRING
    }
  }
  attr {
    key: "value"
    value {
      tensor {
        dtype: DT_STRING
        tensor_shape {
        }
        string_val: "fault"
      }
    }
  }
}
node {
  name: "read_batch_features/ParseExample/ParseExample/dense_keys_7"
  op: "Const"
  device: "/device:CPU:0"
  attr {
    key: "_output_shapes"
    value {
      list {
        shape {
        }
      }
    }
  }
  attr {
    key: "dtype"
    value {
      type: DT_STRING
    }
  }
  attr {
    key: "value"
    value {
      tensor {
        dtype: DT_STRING
        tensor_shape {
        }
        string_val: "hallelujah_reaction"
      }
    }
  }
}
node {
  name: "read_batch_features/ParseExample/ParseExample/dense_keys_8"
  op: "Const"
  device: "/device:CPU:0"
  attr {
    key: "_output_shapes"
    value {
      list {
        shape {
        }
      }
    }
  }
  attr {
    key: "dtype"
    value {
      type: DT_STRING
    }
  }
  attr {
    key: "value"
    value {
      tensor {
        dtype: DT_STRING
        tensor_shape {
        }
        string_val: "hearing_impairments"
      }
    }
  }
}
node {
  name: "read_batch_features/ParseExample/ParseExample/dense_keys_9"
  op: "Const"
  device: "/device:CPU:0"
  attr {
    key: "_output_shapes"
    value {
      list {
        shape {
        }
      }
    }
  }
  attr {
    key: "dtype"
    value {
      type: DT_STRING
    }
  }
  attr {
    key: "value"
    value {
      tensor {
        dtype: DT_STRING
        tensor_shape {
        }
        string_val: "imagination"
      }
    }
  }
}
node {
  name: "read_batch_features/ParseExample/ParseExample/dense_keys_10"
  op: "Const"
  device: "/device:CPU:0"
  attr {
    key: "_output_shapes"
    value {
      list {
        shape {
        }
      }
    }
  }
  attr {
    key: "dtype"
    value {
      type: DT_STRING
    }
  }
  attr {
    key: "value"
    value {
      tensor {
        dtype: DT_STRING
        tensor_shape {
        }
        string_val: "language"
      }
    }
  }
}
node {
  name: "read_batch_features/ParseExample/ParseExample/dense_keys_11"
  op: "Const"
  device: "/device:CPU:0"
  attr {
    key: "_output_shapes"
    value {
      list {
        shape {
        }
      }
    }
  }
  attr {
    key: "dtype"
    value {
      type: DT_STRING
    }
  }
  attr {
    key: "value"
    value {
      tensor {
        dtype: DT_STRING
        tensor_shape {
        }
        string_val: "lazy"
      }
    }
  }
}
node {
  name: "read_batch_features/ParseExample/ParseExample/dense_keys_12"
  op: "Const"
  device: "/device:CPU:0"
  attr {
    key: "_output_shapes"
    value {
      list {
        shape {
        }
      }
    }
  }
  attr {
    key: "dtype"
    value {
      type: DT_STRING
    }
  }
  attr {
    key: "value"
    value {
      tensor {
        dtype: DT_STRING
        tensor_shape {
        }
        string_val: "like_dislike"
      }
    }
  }
}
node {
  name: "read_batch_features/ParseExample/ParseExample/dense_keys_13"
  op: "Const"
  device: "/device:CPU:0"
  attr {
    key: "_output_shapes"
    value {
      list {
        shape {
        }
      }
    }
  }
  attr {
    key: "dtype"
    value {
      type: DT_STRING
    }
  }
  attr {
    key: "value"
    value {
      tensor {
        dtype: DT_STRING
        tensor_shape {
        }
        string_val: "location"
      }
    }
  }
}
node {
  name: "read_batch_features/ParseExample/ParseExample/dense_keys_14"
  op: "Const"
  device: "/device:CPU:0"
  attr {
    key: "_output_shapes"
    value {
      list {
        shape {
        }
      }
    }
  }
  attr {
    key: "dtype"
    value {
      type: DT_STRING
    }
  }
  attr {
    key: "value"
    value {
      tensor {
        dtype: DT_STRING
        tensor_shape {
        }
        string_val: "music_pref_classical"
      }
    }
  }
}
node {
  name: "read_batch_features/ParseExample/ParseExample/dense_keys_15"
  op: "Const"
  device: "/device:CPU:0"
  attr {
    key: "_output_shapes"
    value {
      list {
        shape {
        }
      }
    }
  }
  attr {
    key: "dtype"
    value {
      type: DT_STRING
    }
  }
  attr {
    key: "value"
    value {
      tensor {
        dtype: DT_STRING
        tensor_shape {
        }
        string_val: "music_pref_dance"
      }
    }
  }
}
node {
  name: "read_batch_features/ParseExample/ParseExample/dense_keys_16"
  op: "Const"
  device: "/device:CPU:0"
  attr {
    key: "_output_shapes"
    value {
      list {
        shape {
        }
      }
    }
  }
  attr {
    key: "dtype"
    value {
      type: DT_STRING
    }
  }
  attr {
    key: "value"
    value {
      tensor {
        dtype: DT_STRING
        tensor_shape {
        }
        string_val: "music_pref_folk"
      }
    }
  }
}
node {
  name: "read_batch_features/ParseExample/ParseExample/dense_keys_17"
  op: "Const"
  device: "/device:CPU:0"
  attr {
    key: "_output_shapes"
    value {
      list {
        shape {
        }
      }
    }
  }
  attr {
    key: "dtype"
    value {
      type: DT_STRING
    }
  }
  attr {
    key: "value"
    value {
      tensor {
        dtype: DT_STRING
        tensor_shape {
        }
        string_val: "music_pref_hiphop"
      }
    }
  }
}
node {
  name: "read_batch_features/ParseExample/ParseExample/dense_keys_18"
  op: "Const"
  device: "/device:CPU:0"
  attr {
    key: "_output_shapes"
    value {
      list {
        shape {
        }
      }
    }
  }
  attr {
    key: "dtype"
    value {
      type: DT_STRING
    }
  }
  attr {
    key: "value"
    value {
      tensor {
        dtype: DT_STRING
        tensor_shape {
        }
        string_val: "music_pref_jazz"
      }
    }
  }
}
node {
  name: "read_batch_features/ParseExample/ParseExample/dense_keys_19"
  op: "Const"
  device: "/device:CPU:0"
  attr {
    key: "_output_shapes"
    value {
      list {
        shape {
        }
      }
    }
  }
  attr {
    key: "dtype"
    value {
      type: DT_STRING
    }
  }
  attr {
    key: "value"
    value {
      tensor {
        dtype: DT_STRING
        tensor_shape {
        }
        string_val: "music_pref_none"
      }
    }
  }
}
node {
  name: "read_batch_features/ParseExample/ParseExample/dense_keys_20"
  op: "Const"
  device: "/device:CPU:0"
  attr {
    key: "_output_shapes"
    value {
      list {
        shape {
        }
      }
    }
  }
  attr {
    key: "dtype"
    value {
      type: DT_STRING
    }
  }
  attr {
    key: "value"
    value {
      tensor {
        dtype: DT_STRING
        tensor_shape {
        }
        string_val: "music_pref_pop"
      }
    }
  }
}
node {
  name: "read_batch_features/ParseExample/ParseExample/dense_keys_21"
  op: "Const"
  device: "/device:CPU:0"
  attr {
    key: "_output_shapes"
    value {
      list {
        shape {
        }
      }
    }
  }
  attr {
    key: "dtype"
    value {
      type: DT_STRING
    }
  }
  attr {
    key: "value"
    value {
      tensor {
        dtype: DT_STRING
        tensor_shape {
        }
        string_val: "music_pref_rock"
      }
    }
  }
}
node {
  name: "read_batch_features/ParseExample/ParseExample/dense_keys_22"
  op: "Const"
  device: "/device:CPU:0"
  attr {
    key: "_output_shapes"
    value {
      list {
        shape {
        }
      }
    }
  }
  attr {
    key: "dtype"
    value {
      type: DT_STRING
    }
  }
  attr {
    key: "value"
    value {
      tensor {
        dtype: DT_STRING
        tensor_shape {
        }
        string_val: "music_pref_traditional_irish"
      }
    }
  }
}
node {
  name: "read_batch_features/ParseExample/ParseExample/dense_keys_23"
  op: "Const"
  device: "/device:CPU:0"
  attr {
    key: "_output_shapes"
    value {
      list {
        shape {
        }
      }
    }
  }
  attr {
    key: "dtype"
    value {
      type: DT_STRING
    }
  }
  attr {
    key: "value"
    value {
      tensor {
        dtype: DT_STRING
        tensor_shape {
        }
        string_val: "music_pref_world"
      }
    }
  }
}
node {
  name: "read_batch_features/ParseExample/ParseExample/dense_keys_24"
  op: "Const"
  device: "/device:CPU:0"
  attr {
    key: "_output_shapes"
    value {
      list {
        shape {
        }
      }
    }
  }
  attr {
    key: "dtype"
    value {
      type: DT_STRING
    }
  }
  attr {
    key: "value"
    value {
      tensor {
        dtype: DT_STRING
        tensor_shape {
        }
        string_val: "musical_expertise"
      }
    }
  }
}
node {
  name: "read_batch_features/ParseExample/ParseExample/dense_keys_25"
  op: "Const"
  device: "/device:CPU:0"
  attr {
    key: "_output_shapes"
    value {
      list {
        shape {
        }
      }
    }
  }
  attr {
    key: "dtype"
    value {
      type: DT_STRING
    }
  }
  attr {
    key: "value"
    value {
      tensor {
        dtype: DT_STRING
        tensor_shape {
        }
        string_val: "nationality"
      }
    }
  }
}
node {
  name: "read_batch_features/ParseExample/ParseExample/dense_keys_26"
  op: "Const"
  device: "/device:CPU:0"
  attr {
    key: "_output_shapes"
    value {
      list {
        shape {
        }
      }
    }
  }
  attr {
    key: "dtype"
    value {
      type: DT_STRING
    }
  }
  attr {
    key: "value"
    value {
      tensor {
        dtype: DT_STRING
        tensor_shape {
        }
        string_val: "nervous"
      }
    }
  }
}
node {
  name: "read_batch_features/ParseExample/ParseExample/dense_keys_27"
  op: "Const"
  device: "/device:CPU:0"
  attr {
    key: "_output_shapes"
    value {
      list {
        shape {
        }
      }
    }
  }
  attr {
    key: "dtype"
    value {
      type: DT_STRING
    }
  }
  attr {
    key: "value"
    value {
      tensor {
        dtype: DT_STRING
        tensor_shape {
        }
        string_val: "outgoing"
      }
    }
  }
}
node {
  name: "read_batch_features/ParseExample/ParseExample/dense_keys_28"
  op: "Const"
  device: "/device:CPU:0"
  attr {
    key: "_output_shapes"
    value {
      list {
        shape {
        }
      }
    }
  }
  attr {
    key: "dtype"
    value {
      type: DT_STRING
    }
  }
  attr {
    key: "value"
    value {
      tensor {
        dtype: DT_STRING
        tensor_shape {
        }
        string_val: "positivity"
      }
    }
  }
}
node {
  name: "read_batch_features/ParseExample/ParseExample/dense_keys_29"
  op: "Const"
  device: "/device:CPU:0"
  attr {
    key: "_output_shapes"
    value {
      list {
        shape {
        }
      }
    }
  }
  attr {
    key: "dtype"
    value {
      type: DT_STRING
    }
  }
  attr {
    key: "value"
    value {
      tensor {
        dtype: DT_STRING
        tensor_shape {
        }
        string_val: "reserved"
      }
    }
  }
}
node {
  name: "read_batch_features/ParseExample/ParseExample/dense_keys_30"
  op: "Const"
  device: "/device:CPU:0"
  attr {
    key: "_output_shapes"
    value {
      list {
        shape {
        }
      }
    }
  }
  attr {
    key: "dtype"
    value {
      type: DT_STRING
    }
  }
  attr {
    key: "value"
    value {
      tensor {
        dtype: DT_STRING
        tensor_shape {
        }
        string_val: "sex"
      }
    }
  }
}
node {
  name: "read_batch_features/ParseExample/ParseExample/dense_keys_31"
  op: "Const"
  device: "/device:CPU:0"
  attr {
    key: "_output_shapes"
    value {
      list {
        shape {
        }
      }
    }
  }
  attr {
    key: "dtype"
    value {
      type: DT_STRING
    }
  }
  attr {
    key: "value"
    value {
      tensor {
        dtype: DT_STRING
        tensor_shape {
        }
        string_val: "stress"
      }
    }
  }
}
node {
  name: "read_batch_features/ParseExample/ParseExample/dense_keys_32"
  op: "Const"
  device: "/device:CPU:0"
  attr {
    key: "_output_shapes"
    value {
      list {
        shape {
        }
      }
    }
  }
  attr {
    key: "dtype"
    value {
      type: DT_STRING
    }
  }
  attr {
    key: "value"
    value {
      tensor {
        dtype: DT_STRING
        tensor_shape {
        }
        string_val: "tension"
      }
    }
  }
}
node {
  name: "read_batch_features/ParseExample/ParseExample/dense_keys_33"
  op: "Const"
  device: "/device:CPU:0"
  attr {
    key: "_output_shapes"
    value {
      list {
        shape {
        }
      }
    }
  }
  attr {
    key: "dtype"
    value {
      type: DT_STRING
    }
  }
  attr {
    key: "value"
    value {
      tensor {
        dtype: DT_STRING
        tensor_shape {
        }
        string_val: "thorough"
      }
    }
  }
}
node {
  name: "read_batch_features/ParseExample/ParseExample/dense_keys_34"
  op: "Const"
  device: "/device:CPU:0"
  attr {
    key: "_output_shapes"
    value {
      list {
        shape {
        }
      }
    }
  }
  attr {
    key: "dtype"
    value {
      type: DT_STRING
    }
  }
  attr {
    key: "value"
    value {
      tensor {
        dtype: DT_STRING
        tensor_shape {
        }
        string_val: "trusting"
      }
    }
  }
}
node {
  name: "read_batch_features/ParseExample/ParseExample"
  op: "ParseExample"
  input: "read_batch_features:1"
  input: "read_batch_features/ParseExample/ParseExample/names"
  input: "read_batch_features/ParseExample/ParseExample/dense_keys_0"
  input: "read_batch_features/ParseExample/ParseExample/dense_keys_1"
  input: "read_batch_features/ParseExample/ParseExample/dense_keys_2"
  input: "read_batch_features/ParseExample/ParseExample/dense_keys_3"
  input: "read_batch_features/ParseExample/ParseExample/dense_keys_4"
  input: "read_batch_features/ParseExample/ParseExample/dense_keys_5"
  input: "read_batch_features/ParseExample/ParseExample/dense_keys_6"
  input: "read_batch_features/ParseExample/ParseExample/dense_keys_7"
  input: "read_batch_features/ParseExample/ParseExample/dense_keys_8"
  input: "read_batch_features/ParseExample/ParseExample/dense_keys_9"
  input: "read_batch_features/ParseExample/ParseExample/dense_keys_10"
  input: "read_batch_features/ParseExample/ParseExample/dense_keys_11"
  input: "read_batch_features/ParseExample/ParseExample/dense_keys_12"
  input: "read_batch_features/ParseExample/ParseExample/dense_keys_13"
  input: "read_batch_features/ParseExample/ParseExample/dense_keys_14"
  input: "read_batch_features/ParseExample/ParseExample/dense_keys_15"
  input: "read_batch_features/ParseExample/ParseExample/dense_keys_16"
  input: "read_batch_features/ParseExample/ParseExample/dense_keys_17"
  input: "read_batch_features/ParseExample/ParseExample/dense_keys_18"
  input: "read_batch_features/ParseExample/ParseExample/dense_keys_19"
  input: "read_batch_features/ParseExample/ParseExample/dense_keys_20"
  input: "read_batch_features/ParseExample/ParseExample/dense_keys_21"
  input: "read_batch_features/ParseExample/ParseExample/dense_keys_22"
  input: "read_batch_features/ParseExample/ParseExample/dense_keys_23"
  input: "read_batch_features/ParseExample/ParseExample/dense_keys_24"
  input: "read_batch_features/ParseExample/ParseExample/dense_keys_25"
  input: "read_batch_features/ParseExample/ParseExample/dense_keys_26"
  input: "read_batch_features/ParseExample/ParseExample/dense_keys_27"
  input: "read_batch_features/ParseExample/ParseExample/dense_keys_28"
  input: "read_batch_features/ParseExample/ParseExample/dense_keys_29"
  input: "read_batch_features/ParseExample/ParseExample/dense_keys_30"
  input: "read_batch_features/ParseExample/ParseExample/dense_keys_31"
  input: "read_batch_features/ParseExample/ParseExample/dense_keys_32"
  input: "read_batch_features/ParseExample/ParseExample/dense_keys_33"
  input: "read_batch_features/ParseExample/ParseExample/dense_keys_34"
  input: "read_batch_features/ParseExample/Const"
  input: "read_batch_features/ParseExample/Const_1"
  input: "read_batch_features/ParseExample/Const_2"
  input: "read_batch_features/ParseExample/Const_3"
  input: "read_batch_features/ParseExample/Const_4"
  input: "read_batch_features/ParseExample/Const_5"
  input: "read_batch_features/ParseExample/Const_6"
  input: "read_batch_features/ParseExample/Const_7"
  input: "read_batch_features/ParseExample/Const_8"
  input: "read_batch_features/ParseExample/Const_9"
  input: "read_batch_features/ParseExample/Const_10"
  input: "read_batch_features/ParseExample/Const_11"
  input: "read_batch_features/ParseExample/Const_12"
  input: "read_batch_features/ParseExample/Const_13"
  input: "read_batch_features/ParseExample/Const_14"
  input: "read_batch_features/ParseExample/Const_15"
  input: "read_batch_features/ParseExample/Const_16"
  input: "read_batch_features/ParseExample/Const_17"
  input: "read_batch_features/ParseExample/Const_18"
  input: "read_batch_features/ParseExample/Const_19"
  input: "read_batch_features/ParseExample/Const_20"
  input: "read_batch_features/ParseExample/Const_21"
  input: "read_batch_features/ParseExample/Const_22"
  input: "read_batch_features/ParseExample/Const_23"
  input: "read_batch_features/ParseExample/Const_24"
  input: "read_batch_features/ParseExample/Const_25"
  input: "read_batch_features/ParseExample/Const_26"
  input: "read_batch_features/ParseExample/Const_27"
  input: "read_batch_features/ParseExample/Const_28"
  input: "read_batch_features/ParseExample/Const_29"
  input: "read_batch_features/ParseExample/Const_30"
  input: "read_batch_features/ParseExample/Const_31"
  input: "read_batch_features/ParseExample/Const_32"
  input: "read_batch_features/ParseExample/Const_33"
  input: "read_batch_features/ParseExample/Const_34"
  device: "/device:CPU:0"
  attr {
    key: "Ndense"
    value {
      i: 35
    }
  }
  attr {
    key: "Nsparse"
    value {
      i: 0
    }
  }
  attr {
    key: "Tdense"
    value {
      list {
        type: DT_FLOAT
        type: DT_FLOAT
        type: DT_FLOAT
        type: DT_FLOAT
        type: DT_FLOAT
        type: DT_FLOAT
        type: DT_FLOAT
        type: DT_INT64
        type: DT_INT64
        type: DT_FLOAT
        type: DT_STRING
        type: DT_FLOAT
        type: DT_FLOAT
        type: DT_STRING
        type: DT_INT64
        type: DT_INT64
        type: DT_INT64
        type: DT_INT64
        type: DT_INT64
        type: DT_INT64
        type: DT_INT64
        type: DT_INT64
        type: DT_INT64
        type: DT_INT64
        type: DT_FLOAT
        type: DT_STRING
        type: DT_FLOAT
        type: DT_FLOAT
        type: DT_FLOAT
        type: DT_FLOAT
        type: DT_STRING
        type: DT_FLOAT
        type: DT_FLOAT
        type: DT_FLOAT
        type: DT_FLOAT
      }
    }
  }
  attr {
    key: "_output_shapes"
    value {
      list {
        shape {
          dim {
            size: 303
          }
        }
        shape {
          dim {
            size: 303
          }
        }
        shape {
          dim {
            size: 303
          }
        }
        shape {
          dim {
            size: 303
          }
        }
        shape {
          dim {
            size: 303
          }
        }
        shape {
          dim {
            size: 303
          }
        }
        shape {
          dim {
            size: 303
          }
        }
        shape {
          dim {
            size: 303
          }
        }
        shape {
          dim {
            size: 303
          }
        }
        shape {
          dim {
            size: 303
          }
        }
        shape {
          dim {
            size: 303
          }
        }
        shape {
          dim {
            size: 303
          }
        }
        shape {
          dim {
            size: 303
          }
        }
        shape {
          dim {
            size: 303
          }
        }
        shape {
          dim {
            size: 303
          }
        }
        shape {
          dim {
            size: 303
          }
        }
        shape {
          dim {
            size: 303
          }
        }
        shape {
          dim {
            size: 303
          }
        }
        shape {
          dim {
            size: 303
          }
        }
        shape {
          dim {
            size: 303
          }
        }
        shape {
          dim {
            size: 303
          }
        }
        shape {
          dim {
            size: 303
          }
        }
        shape {
          dim {
            size: 303
          }
        }
        shape {
          dim {
            size: 303
          }
        }
        shape {
          dim {
            size: 303
          }
        }
        shape {
          dim {
            size: 303
          }
        }
        shape {
          dim {
            size: 303
          }
        }
        shape {
          dim {
            size: 303
          }
        }
        shape {
          dim {
            size: 303
          }
        }
        shape {
          dim {
            size: 303
          }
        }
        shape {
          dim {
            size: 303
          }
        }
        shape {
          dim {
            size: 303
          }
        }
        shape {
          dim {
            size: 303
          }
        }
        shape {
          dim {
            size: 303
          }
        }
        shape {
          dim {
            size: 303
          }
        }
      }
    }
  }
  attr {
    key: "dense_shapes"
    value {
      list {
        shape {
        }
        shape {
        }
        shape {
        }
        shape {
        }
        shape {
        }
        shape {
        }
        shape {
        }
        shape {
        }
        shape {
        }
        shape {
        }
        shape {
        }
        shape {
        }
        shape {
        }
        shape {
        }
        shape {
        }
        shape {
        }
        shape {
        }
        shape {
        }
        shape {
        }
        shape {
        }
        shape {
        }
        shape {
        }
        shape {
        }
        shape {
        }
        shape {
        }
        shape {
        }
        shape {
        }
        shape {
        }
        shape {
        }
        shape {
        }
        shape {
        }
        shape {
        }
        shape {
        }
        shape {
        }
        shape {
        }
      }
    }
  }
  attr {
    key: "sparse_types"
    value {
      list {
      }
    }
  }
}
node {
  name: "read_batch_features/fifo_queue"
  op: "FIFOQueueV2"
  device: "/device:CPU:0"
  attr {
    key: "_output_shapes"
    value {
      list {
        shape {
        }
      }
    }
  }
  attr {
    key: "capacity"
    value {
      i: 100
    }
  }
  attr {
    key: "component_types"
    value {
      list {
        type: DT_FLOAT
        type: DT_FLOAT
        type: DT_FLOAT
        type: DT_FLOAT
        type: DT_FLOAT
        type: DT_FLOAT
        type: DT_FLOAT
        type: DT_INT64
        type: DT_INT64
        type: DT_FLOAT
        type: DT_STRING
        type: DT_FLOAT
        type: DT_FLOAT
        type: DT_STRING
        type: DT_INT64
        type: DT_INT64
        type: DT_INT64
        type: DT_INT64
        type: DT_INT64
        type: DT_INT64
        type: DT_INT64
        type: DT_INT64
        type: DT_INT64
        type: DT_INT64
        type: DT_FLOAT
        type: DT_STRING
        type: DT_FLOAT
        type: DT_FLOAT
        type: DT_FLOAT
        type: DT_FLOAT
        type: DT_STRING
        type: DT_FLOAT
        type: DT_FLOAT
        type: DT_FLOAT
        type: DT_FLOAT
        type: DT_STRING
      }
    }
  }
  attr {
    key: "container"
    value {
      s: ""
    }
  }
  attr {
    key: "shapes"
    value {
      list {
      }
    }
  }
  attr {
    key: "shared_name"
    value {
      s: ""
    }
  }
}
node {
  name: "read_batch_features/fifo_queue_Size"
  op: "QueueSizeV2"
  input: "read_batch_features/fifo_queue"
  device: "/device:CPU:0"
  attr {
    key: "_output_shapes"
    value {
      list {
        shape {
        }
      }
    }
  }
}
node {
  name: "read_batch_features/Cast"
  op: "Cast"
  input: "read_batch_features/fifo_queue_Size"
  device: "/device:CPU:0"
  attr {
    key: "DstT"
    value {
      type: DT_FLOAT
    }
  }
  attr {
    key: "SrcT"
    value {
      type: DT_INT32
    }
  }
  attr {
    key: "_output_shapes"
    value {
      list {
        shape {
        }
      }
    }
  }
}
node {
  name: "read_batch_features/mul_1/y"
  op: "Const"
  device: "/device:CPU:0"
  attr {
    key: "_output_shapes"
    value {
      list {
        shape {
        }
      }
    }
  }
  attr {
    key: "dtype"
    value {
      type: DT_FLOAT
    }
  }
  attr {
    key: "value"
    value {
      tensor {
        dtype: DT_FLOAT
        tensor_shape {
        }
        float_val: 0.00999999977648
      }
    }
  }
}
node {
  name: "read_batch_features/mul_1"
  op: "Mul"
  input: "read_batch_features/Cast"
  input: "read_batch_features/mul_1/y"
  device: "/device:CPU:0"
  attr {
    key: "T"
    value {
      type: DT_FLOAT
    }
  }
  attr {
    key: "_output_shapes"
    value {
      list {
        shape {
        }
      }
    }
  }
}
node {
  name: "read_batch_features/queue/parsed_features/read_batch_features/fifo_queue/fraction_of_100_full/tags"
  op: "Const"
  device: "/device:CPU:0"
  attr {
    key: "_output_shapes"
    value {
      list {
        shape {
        }
      }
    }
  }
  attr {
    key: "dtype"
    value {
      type: DT_STRING
    }
  }
  attr {
    key: "value"
    value {
      tensor {
        dtype: DT_STRING
        tensor_shape {
        }
        string_val: "read_batch_features/queue/parsed_features/read_batch_features/fifo_queue/fraction_of_100_full"
      }
    }
  }
}
node {
  name: "read_batch_features/queue/parsed_features/read_batch_features/fifo_queue/fraction_of_100_full"
  op: "ScalarSummary"
  input: "read_batch_features/queue/parsed_features/read_batch_features/fifo_queue/fraction_of_100_full/tags"
  input: "read_batch_features/mul_1"
  device: "/device:CPU:0"
  attr {
    key: "T"
    value {
      type: DT_FLOAT
    }
  }
  attr {
    key: "_output_shapes"
    value {
      list {
        shape {
        }
      }
    }
  }
}
node {
  name: "read_batch_features/fifo_queue_enqueue"
  op: "QueueEnqueueV2"
  input: "read_batch_features/fifo_queue"
  input: "read_batch_features/ParseExample/ParseExample"
  input: "read_batch_features/ParseExample/ParseExample:1"
  input: "read_batch_features/ParseExample/ParseExample:2"
  input: "read_batch_features/ParseExample/ParseExample:3"
  input: "read_batch_features/ParseExample/ParseExample:4"
  input: "read_batch_features/ParseExample/ParseExample:5"
  input: "read_batch_features/ParseExample/ParseExample:6"
  input: "read_batch_features/ParseExample/ParseExample:7"
  input: "read_batch_features/ParseExample/ParseExample:8"
  input: "read_batch_features/ParseExample/ParseExample:9"
  input: "read_batch_features/ParseExample/ParseExample:10"
  input: "read_batch_features/ParseExample/ParseExample:11"
  input: "read_batch_features/ParseExample/ParseExample:12"
  input: "read_batch_features/ParseExample/ParseExample:13"
  input: "read_batch_features/ParseExample/ParseExample:14"
  input: "read_batch_features/ParseExample/ParseExample:15"
  input: "read_batch_features/ParseExample/ParseExample:16"
  input: "read_batch_features/ParseExample/ParseExample:17"
  input: "read_batch_features/ParseExample/ParseExample:18"
  input: "read_batch_features/ParseExample/ParseExample:19"
  input: "read_batch_features/ParseExample/ParseExample:20"
  input: "read_batch_features/ParseExample/ParseExample:21"
  input: "read_batch_features/ParseExample/ParseExample:22"
  input: "read_batch_features/ParseExample/ParseExample:23"
  input: "read_batch_features/ParseExample/ParseExample:24"
  input: "read_batch_features/ParseExample/ParseExample:25"
  input: "read_batch_features/ParseExample/ParseExample:26"
  input: "read_batch_features/ParseExample/ParseExample:27"
  input: "read_batch_features/ParseExample/ParseExample:28"
  input: "read_batch_features/ParseExample/ParseExample:29"
  input: "read_batch_features/ParseExample/ParseExample:30"
  input: "read_batch_features/ParseExample/ParseExample:31"
  input: "read_batch_features/ParseExample/ParseExample:32"
  input: "read_batch_features/ParseExample/ParseExample:33"
  input: "read_batch_features/ParseExample/ParseExample:34"
  input: "read_batch_features"
  device: "/device:CPU:0"
  attr {
    key: "Tcomponents"
    value {
      list {
        type: DT_FLOAT
        type: DT_FLOAT
        type: DT_FLOAT
        type: DT_FLOAT
        type: DT_FLOAT
        type: DT_FLOAT
        type: DT_FLOAT
        type: DT_INT64
        type: DT_INT64
        type: DT_FLOAT
        type: DT_STRING
        type: DT_FLOAT
        type: DT_FLOAT
        type: DT_STRING
        type: DT_INT64
        type: DT_INT64
        type: DT_INT64
        type: DT_INT64
        type: DT_INT64
        type: DT_INT64
        type: DT_INT64
        type: DT_INT64
        type: DT_INT64
        type: DT_INT64
        type: DT_FLOAT
        type: DT_STRING
        type: DT_FLOAT
        type: DT_FLOAT
        type: DT_FLOAT
        type: DT_FLOAT
        type: DT_STRING
        type: DT_FLOAT
        type: DT_FLOAT
        type: DT_FLOAT
        type: DT_FLOAT
        type: DT_STRING
      }
    }
  }
  attr {
    key: "timeout_ms"
    value {
      i: -1
    }
  }
}
node {
  name: "read_batch_features/fifo_queue_enqueue_1"
  op: "QueueEnqueueV2"
  input: "read_batch_features/fifo_queue"
  input: "read_batch_features/ParseExample/ParseExample"
  input: "read_batch_features/ParseExample/ParseExample:1"
  input: "read_batch_features/ParseExample/ParseExample:2"
  input: "read_batch_features/ParseExample/ParseExample:3"
  input: "read_batch_features/ParseExample/ParseExample:4"
  input: "read_batch_features/ParseExample/ParseExample:5"
  input: "read_batch_features/ParseExample/ParseExample:6"
  input: "read_batch_features/ParseExample/ParseExample:7"
  input: "read_batch_features/ParseExample/ParseExample:8"
  input: "read_batch_features/ParseExample/ParseExample:9"
  input: "read_batch_features/ParseExample/ParseExample:10"
  input: "read_batch_features/ParseExample/ParseExample:11"
  input: "read_batch_features/ParseExample/ParseExample:12"
  input: "read_batch_features/ParseExample/ParseExample:13"
  input: "read_batch_features/ParseExample/ParseExample:14"
  input: "read_batch_features/ParseExample/ParseExample:15"
  input: "read_batch_features/ParseExample/ParseExample:16"
  input: "read_batch_features/ParseExample/ParseExample:17"
  input: "read_batch_features/ParseExample/ParseExample:18"
  input: "read_batch_features/ParseExample/ParseExample:19"
  input: "read_batch_features/ParseExample/ParseExample:20"
  input: "read_batch_features/ParseExample/ParseExample:21"
  input: "read_batch_features/ParseExample/ParseExample:22"
  input: "read_batch_features/ParseExample/ParseExample:23"
  input: "read_batch_features/ParseExample/ParseExample:24"
  input: "read_batch_features/ParseExample/ParseExample:25"
  input: "read_batch_features/ParseExample/ParseExample:26"
  input: "read_batch_features/ParseExample/ParseExample:27"
  input: "read_batch_features/ParseExample/ParseExample:28"
  input: "read_batch_features/ParseExample/ParseExample:29"
  input: "read_batch_features/ParseExample/ParseExample:30"
  input: "read_batch_features/ParseExample/ParseExample:31"
  input: "read_batch_features/ParseExample/ParseExample:32"
  input: "read_batch_features/ParseExample/ParseExample:33"
  input: "read_batch_features/ParseExample/ParseExample:34"
  input: "read_batch_features"
  device: "/device:CPU:0"
  attr {
    key: "Tcomponents"
    value {
      list {
        type: DT_FLOAT
        type: DT_FLOAT
        type: DT_FLOAT
        type: DT_FLOAT
        type: DT_FLOAT
        type: DT_FLOAT
        type: DT_FLOAT
        type: DT_INT64
        type: DT_INT64
        type: DT_FLOAT
        type: DT_STRING
        type: DT_FLOAT
        type: DT_FLOAT
        type: DT_STRING
        type: DT_INT64
        type: DT_INT64
        type: DT_INT64
        type: DT_INT64
        type: DT_INT64
        type: DT_INT64
        type: DT_INT64
        type: DT_INT64
        type: DT_INT64
        type: DT_INT64
        type: DT_FLOAT
        type: DT_STRING
        type: DT_FLOAT
        type: DT_FLOAT
        type: DT_FLOAT
        type: DT_FLOAT
        type: DT_STRING
        type: DT_FLOAT
        type: DT_FLOAT
        type: DT_FLOAT
        type: DT_FLOAT
        type: DT_STRING
      }
    }
  }
  attr {
    key: "timeout_ms"
    value {
      i: -1
    }
  }
}
node {
  name: "read_batch_features/fifo_queue_Close"
  op: "QueueCloseV2"
  input: "read_batch_features/fifo_queue"
  device: "/device:CPU:0"
  attr {
    key: "cancel_pending_enqueues"
    value {
      b: false
    }
  }
}
node {
  name: "read_batch_features/fifo_queue_Close_1"
  op: "QueueCloseV2"
  input: "read_batch_features/fifo_queue"
  device: "/device:CPU:0"
  attr {
    key: "cancel_pending_enqueues"
    value {
      b: true
    }
  }
}
node {
  name: "read_batch_features/fifo_queue_Dequeue"
  op: "QueueDequeueV2"
  input: "read_batch_features/fifo_queue"
  device: "/device:CPU:0"
  attr {
    key: "_output_shapes"
    value {
      list {
        shape {
          dim {
            size: 303
          }
        }
        shape {
          dim {
            size: 303
          }
        }
        shape {
          dim {
            size: 303
          }
        }
        shape {
          dim {
            size: 303
          }
        }
        shape {
          dim {
            size: 303
          }
        }
        shape {
          dim {
            size: 303
          }
        }
        shape {
          dim {
            size: 303
          }
        }
        shape {
          dim {
            size: 303
          }
        }
        shape {
          dim {
            size: 303
          }
        }
        shape {
          dim {
            size: 303
          }
        }
        shape {
          dim {
            size: 303
          }
        }
        shape {
          dim {
            size: 303
          }
        }
        shape {
          dim {
            size: 303
          }
        }
        shape {
          dim {
            size: 303
          }
        }
        shape {
          dim {
            size: 303
          }
        }
        shape {
          dim {
            size: 303
          }
        }
        shape {
          dim {
            size: 303
          }
        }
        shape {
          dim {
            size: 303
          }
        }
        shape {
          dim {
            size: 303
          }
        }
        shape {
          dim {
            size: 303
          }
        }
        shape {
          dim {
            size: 303
          }
        }
        shape {
          dim {
            size: 303
          }
        }
        shape {
          dim {
            size: 303
          }
        }
        shape {
          dim {
            size: 303
          }
        }
        shape {
          dim {
            size: 303
          }
        }
        shape {
          dim {
            size: 303
          }
        }
        shape {
          dim {
            size: 303
          }
        }
        shape {
          dim {
            size: 303
          }
        }
        shape {
          dim {
            size: 303
          }
        }
        shape {
          dim {
            size: 303
          }
        }
        shape {
          dim {
            size: 303
          }
        }
        shape {
          dim {
            size: 303
          }
        }
        shape {
          dim {
            size: 303
          }
        }
        shape {
          dim {
            size: 303
          }
        }
        shape {
          dim {
            size: 303
          }
        }
        shape {
          dim {
            size: 303
          }
        }
      }
    }
  }
  attr {
    key: "component_types"
    value {
      list {
        type: DT_FLOAT
        type: DT_FLOAT
        type: DT_FLOAT
        type: DT_FLOAT
        type: DT_FLOAT
        type: DT_FLOAT
        type: DT_FLOAT
        type: DT_INT64
        type: DT_INT64
        type: DT_FLOAT
        type: DT_STRING
        type: DT_FLOAT
        type: DT_FLOAT
        type: DT_STRING
        type: DT_INT64
        type: DT_INT64
        type: DT_INT64
        type: DT_INT64
        type: DT_INT64
        type: DT_INT64
        type: DT_INT64
        type: DT_INT64
        type: DT_INT64
        type: DT_INT64
        type: DT_FLOAT
        type: DT_STRING
        type: DT_FLOAT
        type: DT_FLOAT
        type: DT_FLOAT
        type: DT_FLOAT
        type: DT_STRING
        type: DT_FLOAT
        type: DT_FLOAT
        type: DT_FLOAT
        type: DT_FLOAT
        type: DT_STRING
      }
    }
  }
  attr {
    key: "timeout_ms"
    value {
      i: -1
    }
  }
}
node {
  name: "ExpandDims/dim"
  op: "Const"
  device: "/device:CPU:0"
  attr {
    key: "_output_shapes"
    value {
      list {
        shape {
        }
      }
    }
  }
  attr {
    key: "dtype"
    value {
      type: DT_INT32
    }
  }
  attr {
    key: "value"
    value {
      tensor {
        dtype: DT_INT32
        tensor_shape {
        }
        int_val: -1
      }
    }
  }
}
node {
  name: "ExpandDims"
  op: "ExpandDims"
  input: "read_batch_features/fifo_queue_Dequeue:23"
  input: "ExpandDims/dim"
  device: "/device:CPU:0"
  attr {
    key: "T"
    value {
      type: DT_INT64
    }
  }
  attr {
    key: "Tdim"
    value {
      type: DT_INT32
    }
  }
  attr {
    key: "_output_shapes"
    value {
      list {
        shape {
          dim {
            size: 303
          }
          dim {
            size: 1
          }
        }
      }
    }
  }
}
node {
  name: "ExpandDims_1/dim"
  op: "Const"
  device: "/device:CPU:0"
  attr {
    key: "_output_shapes"
    value {
      list {
        shape {
        }
      }
    }
  }
  attr {
    key: "dtype"
    value {
      type: DT_INT32
    }
  }
  attr {
    key: "value"
    value {
      tensor {
        dtype: DT_INT32
        tensor_shape {
        }
        int_val: -1
      }
    }
  }
}
node {
  name: "ExpandDims_1"
  op: "ExpandDims"
  input: "read_batch_features/fifo_queue_Dequeue:24"
  input: "ExpandDims_1/dim"
  device: "/device:CPU:0"
  attr {
    key: "T"
    value {
      type: DT_FLOAT
    }
  }
  attr {
    key: "Tdim"
    value {
      type: DT_INT32
    }
  }
  attr {
    key: "_output_shapes"
    value {
      list {
        shape {
          dim {
            size: 303
          }
          dim {
            size: 1
          }
        }
      }
    }
  }
}
node {
  name: "ExpandDims_2/dim"
  op: "Const"
  device: "/device:CPU:0"
  attr {
    key: "_output_shapes"
    value {
      list {
        shape {
        }
      }
    }
  }
  attr {
    key: "dtype"
    value {
      type: DT_INT32
    }
  }
  attr {
    key: "value"
    value {
      tensor {
        dtype: DT_INT32
        tensor_shape {
        }
        int_val: -1
      }
    }
  }
}
node {
  name: "ExpandDims_2"
  op: "ExpandDims"
  input: "read_batch_features/fifo_queue_Dequeue:29"
  input: "ExpandDims_2/dim"
  device: "/device:CPU:0"
  attr {
    key: "T"
    value {
      type: DT_FLOAT
    }
  }
  attr {
    key: "Tdim"
    value {
      type: DT_INT32
    }
  }
  attr {
    key: "_output_shapes"
    value {
      list {
        shape {
          dim {
            size: 303
          }
          dim {
            size: 1
          }
        }
      }
    }
  }
}
node {
  name: "ExpandDims_3/dim"
  op: "Const"
  device: "/device:CPU:0"
  attr {
    key: "_output_shapes"
    value {
      list {
        shape {
        }
      }
    }
  }
  attr {
    key: "dtype"
    value {
      type: DT_INT32
    }
  }
  attr {
    key: "value"
    value {
      tensor {
        dtype: DT_INT32
        tensor_shape {
        }
        int_val: -1
      }
    }
  }
}
node {
  name: "ExpandDims_3"
  op: "ExpandDims"
  input: "read_batch_features/fifo_queue_Dequeue:17"
  input: "ExpandDims_3/dim"
  device: "/device:CPU:0"
  attr {
    key: "T"
    value {
      type: DT_INT64
    }
  }
  attr {
    key: "Tdim"
    value {
      type: DT_INT32
    }
  }
  attr {
    key: "_output_shapes"
    value {
      list {
        shape {
          dim {
            size: 303
          }
          dim {
            size: 1
          }
        }
      }
    }
  }
}
node {
  name: "ExpandDims_4/dim"
  op: "Const"
  device: "/device:CPU:0"
  attr {
    key: "_output_shapes"
    value {
      list {
        shape {
        }
      }
    }
  }
  attr {
    key: "dtype"
    value {
      type: DT_INT32
    }
  }
  attr {
    key: "value"
    value {
      tensor {
        dtype: DT_INT32
        tensor_shape {
        }
        int_val: -1
      }
    }
  }
}
node {
  name: "ExpandDims_4"
  op: "ExpandDims"
  input: "read_batch_features/fifo_queue_Dequeue:34"
  input: "ExpandDims_4/dim"
  device: "/device:CPU:0"
  attr {
    key: "T"
    value {
      type: DT_FLOAT
    }
  }
  attr {
    key: "Tdim"
    value {
      type: DT_INT32
    }
  }
  attr {
    key: "_output_shapes"
    value {
      list {
        shape {
          dim {
            size: 303
          }
          dim {
            size: 1
          }
        }
      }
    }
  }
}
node {
  name: "ExpandDims_5/dim"
  op: "Const"
  device: "/device:CPU:0"
  attr {
    key: "_output_shapes"
    value {
      list {
        shape {
        }
      }
    }
  }
  attr {
    key: "dtype"
    value {
      type: DT_INT32
    }
  }
  attr {
    key: "value"
    value {
      tensor {
        dtype: DT_INT32
        tensor_shape {
        }
        int_val: -1
      }
    }
  }
}
node {
  name: "ExpandDims_5"
  op: "ExpandDims"
  input: "read_batch_features/fifo_queue_Dequeue:11"
  input: "ExpandDims_5/dim"
  device: "/device:CPU:0"
  attr {
    key: "T"
    value {
      type: DT_FLOAT
    }
  }
  attr {
    key: "Tdim"
    value {
      type: DT_INT32
    }
  }
  attr {
    key: "_output_shapes"
    value {
      list {
        shape {
          dim {
            size: 303
          }
          dim {
            size: 1
          }
        }
      }
    }
  }
}
node {
  name: "ExpandDims_6/dim"
  op: "Const"
  device: "/device:CPU:0"
  attr {
    key: "_output_shapes"
    value {
      list {
        shape {
        }
      }
    }
  }
  attr {
    key: "dtype"
    value {
      type: DT_INT32
    }
  }
  attr {
    key: "value"
    value {
      tensor {
        dtype: DT_INT32
        tensor_shape {
        }
        int_val: -1
      }
    }
  }
}
node {
  name: "ExpandDims_6"
  op: "ExpandDims"
  input: "read_batch_features/fifo_queue_Dequeue:15"
  input: "ExpandDims_6/dim"
  device: "/device:CPU:0"
  attr {
    key: "T"
    value {
      type: DT_INT64
    }
  }
  attr {
    key: "Tdim"
    value {
      type: DT_INT32
    }
  }
  attr {
    key: "_output_shapes"
    value {
      list {
        shape {
          dim {
            size: 303
          }
          dim {
            size: 1
          }
        }
      }
    }
  }
}
node {
  name: "ExpandDims_7/dim"
  op: "Const"
  device: "/device:CPU:0"
  attr {
    key: "_output_shapes"
    value {
      list {
        shape {
        }
      }
    }
  }
  attr {
    key: "dtype"
    value {
      type: DT_INT32
    }
  }
  attr {
    key: "value"
    value {
      tensor {
        dtype: DT_INT32
        tensor_shape {
        }
        int_val: -1
      }
    }
  }
}
node {
  name: "ExpandDims_7"
  op: "ExpandDims"
  input: "read_batch_features/fifo_queue_Dequeue:9"
  input: "ExpandDims_7/dim"
  device: "/device:CPU:0"
  attr {
    key: "T"
    value {
      type: DT_FLOAT
    }
  }
  attr {
    key: "Tdim"
    value {
      type: DT_INT32
    }
  }
  attr {
    key: "_output_shapes"
    value {
      list {
        shape {
          dim {
            size: 303
          }
          dim {
            size: 1
          }
        }
      }
    }
  }
}
node {
  name: "ExpandDims_8/dim"
  op: "Const"
  device: "/device:CPU:0"
  attr {
    key: "_output_shapes"
    value {
      list {
        shape {
        }
      }
    }
  }
  attr {
    key: "dtype"
    value {
      type: DT_INT32
    }
  }
  attr {
    key: "value"
    value {
      tensor {
        dtype: DT_INT32
        tensor_shape {
        }
        int_val: -1
      }
    }
  }
}
node {
  name: "ExpandDims_8"
  op: "ExpandDims"
  input: "read_batch_features/fifo_queue_Dequeue:14"
  input: "ExpandDims_8/dim"
  device: "/device:CPU:0"
  attr {
    key: "T"
    value {
      type: DT_INT64
    }
  }
  attr {
    key: "Tdim"
    value {
      type: DT_INT32
    }
  }
  attr {
    key: "_output_shapes"
    value {
      list {
        shape {
          dim {
            size: 303
          }
          dim {
            size: 1
          }
        }
      }
    }
  }
}
node {
  name: "ExpandDims_9/dim"
  op: "Const"
  device: "/device:CPU:0"
  attr {
    key: "_output_shapes"
    value {
      list {
        shape {
        }
      }
    }
  }
  attr {
    key: "dtype"
    value {
      type: DT_INT32
    }
  }
  attr {
    key: "value"
    value {
      tensor {
        dtype: DT_INT32
        tensor_shape {
        }
        int_val: -1
      }
    }
  }
}
node {
  name: "ExpandDims_9"
  op: "ExpandDims"
  input: "read_batch_features/fifo_queue_Dequeue:3"
  input: "ExpandDims_9/dim"
  device: "/device:CPU:0"
  attr {
    key: "T"
    value {
      type: DT_FLOAT
    }
  }
  attr {
    key: "Tdim"
    value {
      type: DT_INT32
    }
  }
  attr {
    key: "_output_shapes"
    value {
      list {
        shape {
          dim {
            size: 303
          }
          dim {
            size: 1
          }
        }
      }
    }
  }
}
node {
  name: "ExpandDims_10/dim"
  op: "Const"
  device: "/device:CPU:0"
  attr {
    key: "_output_shapes"
    value {
      list {
        shape {
        }
      }
    }
  }
  attr {
    key: "dtype"
    value {
      type: DT_INT32
    }
  }
  attr {
    key: "value"
    value {
      tensor {
        dtype: DT_INT32
        tensor_shape {
        }
        int_val: -1
      }
    }
  }
}
node {
  name: "ExpandDims_10"
  op: "ExpandDims"
  input: "read_batch_features/fifo_queue_Dequeue:8"
  input: "ExpandDims_10/dim"
  device: "/device:CPU:0"
  attr {
    key: "T"
    value {
      type: DT_INT64
    }
  }
  attr {
    key: "Tdim"
    value {
      type: DT_INT32
    }
  }
  attr {
    key: "_output_shapes"
    value {
      list {
        shape {
          dim {
            size: 303
          }
          dim {
            size: 1
          }
        }
      }
    }
  }
}
node {
  name: "ExpandDims_11/dim"
  op: "Const"
  device: "/device:CPU:0"
  attr {
    key: "_output_shapes"
    value {
      list {
        shape {
        }
      }
    }
  }
  attr {
    key: "dtype"
    value {
      type: DT_INT32
    }
  }
  attr {
    key: "value"
    value {
      tensor {
        dtype: DT_INT32
        tensor_shape {
        }
        int_val: -1
      }
    }
  }
}
node {
  name: "ExpandDims_11"
  op: "ExpandDims"
  input: "read_batch_features/fifo_queue_Dequeue:26"
  input: "ExpandDims_11/dim"
  device: "/device:CPU:0"
  attr {
    key: "T"
    value {
      type: DT_FLOAT
    }
  }
  attr {
    key: "Tdim"
    value {
      type: DT_INT32
    }
  }
  attr {
    key: "_output_shapes"
    value {
      list {
        shape {
          dim {
            size: 303
          }
          dim {
            size: 1
          }
        }
      }
    }
  }
}
node {
  name: "ExpandDims_12/dim"
  op: "Const"
  device: "/device:CPU:0"
  attr {
    key: "_output_shapes"
    value {
      list {
        shape {
        }
      }
    }
  }
  attr {
    key: "dtype"
    value {
      type: DT_INT32
    }
  }
  attr {
    key: "value"
    value {
      tensor {
        dtype: DT_INT32
        tensor_shape {
        }
        int_val: -1
      }
    }
  }
}
node {
  name: "ExpandDims_12"
  op: "ExpandDims"
  input: "read_batch_features/fifo_queue_Dequeue:28"
  input: "ExpandDims_12/dim"
  device: "/device:CPU:0"
  attr {
    key: "T"
    value {
      type: DT_FLOAT
    }
  }
  attr {
    key: "Tdim"
    value {
      type: DT_INT32
    }
  }
  attr {
    key: "_output_shapes"
    value {
      list {
        shape {
          dim {
            size: 303
          }
          dim {
            size: 1
          }
        }
      }
    }
  }
}
node {
  name: "ExpandDims_13/dim"
  op: "Const"
  device: "/device:CPU:0"
  attr {
    key: "_output_shapes"
    value {
      list {
        shape {
        }
      }
    }
  }
  attr {
    key: "dtype"
    value {
      type: DT_INT32
    }
  }
  attr {
    key: "value"
    value {
      tensor {
        dtype: DT_INT32
        tensor_shape {
        }
        int_val: -1
      }
    }
  }
}
node {
  name: "ExpandDims_13"
  op: "ExpandDims"
  input: "read_batch_features/fifo_queue_Dequeue:4"
  input: "ExpandDims_13/dim"
  device: "/device:CPU:0"
  attr {
    key: "T"
    value {
      type: DT_FLOAT
    }
  }
  attr {
    key: "Tdim"
    value {
      type: DT_INT32
    }
  }
  attr {
    key: "_output_shapes"
    value {
      list {
        shape {
          dim {
            size: 303
          }
          dim {
            size: 1
          }
        }
      }
    }
  }
}
node {
  name: "ExpandDims_14/dim"
  op: "Const"
  device: "/device:CPU:0"
  attr {
    key: "_output_shapes"
    value {
      list {
        shape {
        }
      }
    }
  }
  attr {
    key: "dtype"
    value {
      type: DT_INT32
    }
  }
  attr {
    key: "value"
    value {
      tensor {
        dtype: DT_INT32
        tensor_shape {
        }
        int_val: -1
      }
    }
  }
}
node {
  name: "ExpandDims_14"
  op: "ExpandDims"
  input: "read_batch_features/fifo_queue_Dequeue:5"
  input: "ExpandDims_14/dim"
  device: "/device:CPU:0"
  attr {
    key: "T"
    value {
      type: DT_FLOAT
    }
  }
  attr {
    key: "Tdim"
    value {
      type: DT_INT32
    }
  }
  attr {
    key: "_output_shapes"
    value {
      list {
        shape {
          dim {
            size: 303
          }
          dim {
            size: 1
          }
        }
      }
    }
  }
}
node {
  name: "ExpandDims_15/dim"
  op: "Const"
  device: "/device:CPU:0"
  attr {
    key: "_output_shapes"
    value {
      list {
        shape {
        }
      }
    }
  }
  attr {
    key: "dtype"
    value {
      type: DT_INT32
    }
  }
  attr {
    key: "value"
    value {
      tensor {
        dtype: DT_INT32
        tensor_shape {
        }
        int_val: -1
      }
    }
  }
}
node {
  name: "ExpandDims_15"
  op: "ExpandDims"
  input: "read_batch_features/fifo_queue_Dequeue:33"
  input: "ExpandDims_15/dim"
  device: "/device:CPU:0"
  attr {
    key: "T"
    value {
      type: DT_FLOAT
    }
  }
  attr {
    key: "Tdim"
    value {
      type: DT_INT32
    }
  }
  attr {
    key: "_output_shapes"
    value {
      list {
        shape {
          dim {
            size: 303
          }
          dim {
            size: 1
          }
        }
      }
    }
  }
}
node {
  name: "ExpandDims_16/dim"
  op: "Const"
  device: "/device:CPU:0"
  attr {
    key: "_output_shapes"
    value {
      list {
        shape {
        }
      }
    }
  }
  attr {
    key: "dtype"
    value {
      type: DT_INT32
    }
  }
  attr {
    key: "value"
    value {
      tensor {
        dtype: DT_INT32
        tensor_shape {
        }
        int_val: -1
      }
    }
  }
}
node {
  name: "ExpandDims_16"
  op: "ExpandDims"
  input: "read_batch_features/fifo_queue_Dequeue:19"
  input: "ExpandDims_16/dim"
  device: "/device:CPU:0"
  attr {
    key: "T"
    value {
      type: DT_INT64
    }
  }
  attr {
    key: "Tdim"
    value {
      type: DT_INT32
    }
  }
  attr {
    key: "_output_shapes"
    value {
      list {
        shape {
          dim {
            size: 303
          }
          dim {
            size: 1
          }
        }
      }
    }
  }
}
node {
  name: "ExpandDims_17/dim"
  op: "Const"
  device: "/device:CPU:0"
  attr {
    key: "_output_shapes"
    value {
      list {
        shape {
        }
      }
    }
  }
  attr {
    key: "dtype"
    value {
      type: DT_INT32
    }
  }
  attr {
    key: "value"
    value {
      tensor {
        dtype: DT_INT32
        tensor_shape {
        }
        int_val: -1
      }
    }
  }
}
node {
  name: "ExpandDims_17"
  op: "ExpandDims"
  input: "read_batch_features/fifo_queue_Dequeue:13"
  input: "ExpandDims_17/dim"
  device: "/device:CPU:0"
  attr {
    key: "T"
    value {
      type: DT_STRING
    }
  }
  attr {
    key: "Tdim"
    value {
      type: DT_INT32
    }
  }
  attr {
    key: "_output_shapes"
    value {
      list {
        shape {
          dim {
            size: 303
          }
          dim {
            size: 1
          }
        }
      }
    }
  }
}
node {
  name: "ExpandDims_18/dim"
  op: "Const"
  device: "/device:CPU:0"
  attr {
    key: "_output_shapes"
    value {
      list {
        shape {
        }
      }
    }
  }
  attr {
    key: "dtype"
    value {
      type: DT_INT32
    }
  }
  attr {
    key: "value"
    value {
      tensor {
        dtype: DT_INT32
        tensor_shape {
        }
        int_val: -1
      }
    }
  }
}
node {
  name: "ExpandDims_18"
  op: "ExpandDims"
  input: "read_batch_features/fifo_queue_Dequeue:21"
  input: "ExpandDims_18/dim"
  device: "/device:CPU:0"
  attr {
    key: "T"
    value {
      type: DT_INT64
    }
  }
  attr {
    key: "Tdim"
    value {
      type: DT_INT32
    }
  }
  attr {
    key: "_output_shapes"
    value {
      list {
        shape {
          dim {
            size: 303
          }
          dim {
            size: 1
          }
        }
      }
    }
  }
}
node {
  name: "ExpandDims_19/dim"
  op: "Const"
  device: "/device:CPU:0"
  attr {
    key: "_output_shapes"
    value {
      list {
        shape {
        }
      }
    }
  }
  attr {
    key: "dtype"
    value {
      type: DT_INT32
    }
  }
  attr {
    key: "value"
    value {
      tensor {
        dtype: DT_INT32
        tensor_shape {
        }
        int_val: -1
      }
    }
  }
}
node {
  name: "ExpandDims_19"
  op: "ExpandDims"
  input: "read_batch_features/fifo_queue_Dequeue:32"
  input: "ExpandDims_19/dim"
  device: "/device:CPU:0"
  attr {
    key: "T"
    value {
      type: DT_FLOAT
    }
  }
  attr {
    key: "Tdim"
    value {
      type: DT_INT32
    }
  }
  attr {
    key: "_output_shapes"
    value {
      list {
        shape {
          dim {
            size: 303
          }
          dim {
            size: 1
          }
        }
      }
    }
  }
}
node {
  name: "ExpandDims_20/dim"
  op: "Const"
  device: "/device:CPU:0"
  attr {
    key: "_output_shapes"
    value {
      list {
        shape {
        }
      }
    }
  }
  attr {
    key: "dtype"
    value {
      type: DT_INT32
    }
  }
  attr {
    key: "value"
    value {
      tensor {
        dtype: DT_INT32
        tensor_shape {
        }
        int_val: -1
      }
    }
  }
}
node {
  name: "ExpandDims_20"
  op: "ExpandDims"
  input: "read_batch_features/fifo_queue_Dequeue:27"
  input: "ExpandDims_20/dim"
  device: "/device:CPU:0"
  attr {
    key: "T"
    value {
      type: DT_FLOAT
    }
  }
  attr {
    key: "Tdim"
    value {
      type: DT_INT32
    }
  }
  attr {
    key: "_output_shapes"
    value {
      list {
        shape {
          dim {
            size: 303
          }
          dim {
            size: 1
          }
        }
      }
    }
  }
}
node {
  name: "ExpandDims_21/dim"
  op: "Const"
  device: "/device:CPU:0"
  attr {
    key: "_output_shapes"
    value {
      list {
        shape {
        }
      }
    }
  }
  attr {
    key: "dtype"
    value {
      type: DT_INT32
    }
  }
  attr {
    key: "value"
    value {
      tensor {
        dtype: DT_INT32
        tensor_shape {
        }
        int_val: -1
      }
    }
  }
}
node {
  name: "ExpandDims_21"
  op: "ExpandDims"
  input: "read_batch_features/fifo_queue_Dequeue"
  input: "ExpandDims_21/dim"
  device: "/device:CPU:0"
  attr {
    key: "T"
    value {
      type: DT_FLOAT
    }
  }
  attr {
    key: "Tdim"
    value {
      type: DT_INT32
    }
  }
  attr {
    key: "_output_shapes"
    value {
      list {
        shape {
          dim {
            size: 303
          }
          dim {
            size: 1
          }
        }
      }
    }
  }
}
node {
  name: "ExpandDims_22/dim"
  op: "Const"
  device: "/device:CPU:0"
  attr {
    key: "_output_shapes"
    value {
      list {
        shape {
        }
      }
    }
  }
  attr {
    key: "dtype"
    value {
      type: DT_INT32
    }
  }
  attr {
    key: "value"
    value {
      tensor {
        dtype: DT_INT32
        tensor_shape {
        }
        int_val: -1
      }
    }
  }
}
node {
  name: "ExpandDims_22"
  op: "ExpandDims"
  input: "read_batch_features/fifo_queue_Dequeue:25"
  input: "ExpandDims_22/dim"
  device: "/device:CPU:0"
  attr {
    key: "T"
    value {
      type: DT_STRING
    }
  }
  attr {
    key: "Tdim"
    value {
      type: DT_INT32
    }
  }
  attr {
    key: "_output_shapes"
    value {
      list {
        shape {
          dim {
            size: 303
          }
          dim {
            size: 1
          }
        }
      }
    }
  }
}
node {
  name: "ExpandDims_23/dim"
  op: "Const"
  device: "/device:CPU:0"
  attr {
    key: "_output_shapes"
    value {
      list {
        shape {
        }
      }
    }
  }
  attr {
    key: "dtype"
    value {
      type: DT_INT32
    }
  }
  attr {
    key: "value"
    value {
      tensor {
        dtype: DT_INT32
        tensor_shape {
        }
        int_val: -1
      }
    }
  }
}
node {
  name: "ExpandDims_23"
  op: "ExpandDims"
  input: "read_batch_features/fifo_queue_Dequeue:30"
  input: "ExpandDims_23/dim"
  device: "/device:CPU:0"
  attr {
    key: "T"
    value {
      type: DT_STRING
    }
  }
  attr {
    key: "Tdim"
    value {
      type: DT_INT32
    }
  }
  attr {
    key: "_output_shapes"
    value {
      list {
        shape {
          dim {
            size: 303
          }
          dim {
            size: 1
          }
        }
      }
    }
  }
}
node {
  name: "ExpandDims_24/dim"
  op: "Const"
  device: "/device:CPU:0"
  attr {
    key: "_output_shapes"
    value {
      list {
        shape {
        }
      }
    }
  }
  attr {
    key: "dtype"
    value {
      type: DT_INT32
    }
  }
  attr {
    key: "value"
    value {
      tensor {
        dtype: DT_INT32
        tensor_shape {
        }
        int_val: -1
      }
    }
  }
}
node {
  name: "ExpandDims_24"
  op: "ExpandDims"
  input: "read_batch_features/fifo_queue_Dequeue:31"
  input: "ExpandDims_24/dim"
  device: "/device:CPU:0"
  attr {
    key: "T"
    value {
      type: DT_FLOAT
    }
  }
  attr {
    key: "Tdim"
    value {
      type: DT_INT32
    }
  }
  attr {
    key: "_output_shapes"
    value {
      list {
        shape {
          dim {
            size: 303
          }
          dim {
            size: 1
          }
        }
      }
    }
  }
}
node {
  name: "ExpandDims_25/dim"
  op: "Const"
  device: "/device:CPU:0"
  attr {
    key: "_output_shapes"
    value {
      list {
        shape {
        }
      }
    }
  }
  attr {
    key: "dtype"
    value {
      type: DT_INT32
    }
  }
  attr {
    key: "value"
    value {
      tensor {
        dtype: DT_INT32
        tensor_shape {
        }
        int_val: -1
      }
    }
  }
}
node {
  name: "ExpandDims_25"
  op: "ExpandDims"
  input: "read_batch_features/fifo_queue_Dequeue:12"
  input: "ExpandDims_25/dim"
  device: "/device:CPU:0"
  attr {
    key: "T"
    value {
      type: DT_FLOAT
    }
  }
  attr {
    key: "Tdim"
    value {
      type: DT_INT32
    }
  }
  attr {
    key: "_output_shapes"
    value {
      list {
        shape {
          dim {
            size: 303
          }
          dim {
            size: 1
          }
        }
      }
    }
  }
}
node {
  name: "ExpandDims_26/dim"
  op: "Const"
  device: "/device:CPU:0"
  attr {
    key: "_output_shapes"
    value {
      list {
        shape {
        }
      }
    }
  }
  attr {
    key: "dtype"
    value {
      type: DT_INT32
    }
  }
  attr {
    key: "value"
    value {
      tensor {
        dtype: DT_INT32
        tensor_shape {
        }
        int_val: -1
      }
    }
  }
}
node {
  name: "ExpandDims_26"
  op: "ExpandDims"
  input: "read_batch_features/fifo_queue_Dequeue:10"
  input: "ExpandDims_26/dim"
  device: "/device:CPU:0"
  attr {
    key: "T"
    value {
      type: DT_STRING
    }
  }
  attr {
    key: "Tdim"
    value {
      type: DT_INT32
    }
  }
  attr {
    key: "_output_shapes"
    value {
      list {
        shape {
          dim {
            size: 303
          }
          dim {
            size: 1
          }
        }
      }
    }
  }
}
node {
  name: "ExpandDims_27/dim"
  op: "Const"
  device: "/device:CPU:0"
  attr {
    key: "_output_shapes"
    value {
      list {
        shape {
        }
      }
    }
  }
  attr {
    key: "dtype"
    value {
      type: DT_INT32
    }
  }
  attr {
    key: "value"
    value {
      tensor {
        dtype: DT_INT32
        tensor_shape {
        }
        int_val: -1
      }
    }
  }
}
node {
  name: "ExpandDims_27"
  op: "ExpandDims"
  input: "read_batch_features/fifo_queue_Dequeue:6"
  input: "ExpandDims_27/dim"
  device: "/device:CPU:0"
  attr {
    key: "T"
    value {
      type: DT_FLOAT
    }
  }
  attr {
    key: "Tdim"
    value {
      type: DT_INT32
    }
  }
  attr {
    key: "_output_shapes"
    value {
      list {
        shape {
          dim {
            size: 303
          }
          dim {
            size: 1
          }
        }
      }
    }
  }
}
node {
  name: "ExpandDims_28/dim"
  op: "Const"
  device: "/device:CPU:0"
  attr {
    key: "_output_shapes"
    value {
      list {
        shape {
        }
      }
    }
  }
  attr {
    key: "dtype"
    value {
      type: DT_INT32
    }
  }
  attr {
    key: "value"
    value {
      tensor {
        dtype: DT_INT32
        tensor_shape {
        }
        int_val: -1
      }
    }
  }
}
node {
  name: "ExpandDims_28"
  op: "ExpandDims"
  input: "read_batch_features/fifo_queue_Dequeue:1"
  input: "ExpandDims_28/dim"
  device: "/device:CPU:0"
  attr {
    key: "T"
    value {
      type: DT_FLOAT
    }
  }
  attr {
    key: "Tdim"
    value {
      type: DT_INT32
    }
  }
  attr {
    key: "_output_shapes"
    value {
      list {
        shape {
          dim {
            size: 303
          }
          dim {
            size: 1
          }
        }
      }
    }
  }
}
node {
  name: "ExpandDims_29/dim"
  op: "Const"
  device: "/device:CPU:0"
  attr {
    key: "_output_shapes"
    value {
      list {
        shape {
        }
      }
    }
  }
  attr {
    key: "dtype"
    value {
      type: DT_INT32
    }
  }
  attr {
    key: "value"
    value {
      tensor {
        dtype: DT_INT32
        tensor_shape {
        }
        int_val: -1
      }
    }
  }
}
node {
  name: "ExpandDims_29"
  op: "ExpandDims"
  input: "read_batch_features/fifo_queue_Dequeue:20"
  input: "ExpandDims_29/dim"
  device: "/device:CPU:0"
  attr {
    key: "T"
    value {
      type: DT_INT64
    }
  }
  attr {
    key: "Tdim"
    value {
      type: DT_INT32
    }
  }
  attr {
    key: "_output_shapes"
    value {
      list {
        shape {
          dim {
            size: 303
          }
          dim {
            size: 1
          }
        }
      }
    }
  }
}
node {
  name: "ExpandDims_30/dim"
  op: "Const"
  device: "/device:CPU:0"
  attr {
    key: "_output_shapes"
    value {
      list {
        shape {
        }
      }
    }
  }
  attr {
    key: "dtype"
    value {
      type: DT_INT32
    }
  }
  attr {
    key: "value"
    value {
      tensor {
        dtype: DT_INT32
        tensor_shape {
        }
        int_val: -1
      }
    }
  }
}
node {
  name: "ExpandDims_30"
  op: "ExpandDims"
  input: "read_batch_features/fifo_queue_Dequeue:18"
  input: "ExpandDims_30/dim"
  device: "/device:CPU:0"
  attr {
    key: "T"
    value {
      type: DT_INT64
    }
  }
  attr {
    key: "Tdim"
    value {
      type: DT_INT32
    }
  }
  attr {
    key: "_output_shapes"
    value {
      list {
        shape {
          dim {
            size: 303
          }
          dim {
            size: 1
          }
        }
      }
    }
  }
}
node {
  name: "ExpandDims_31/dim"
  op: "Const"
  device: "/device:CPU:0"
  attr {
    key: "_output_shapes"
    value {
      list {
        shape {
        }
      }
    }
  }
  attr {
    key: "dtype"
    value {
      type: DT_INT32
    }
  }
  attr {
    key: "value"
    value {
      tensor {
        dtype: DT_INT32
        tensor_shape {
        }
        int_val: -1
      }
    }
  }
}
node {
  name: "ExpandDims_31"
  op: "ExpandDims"
  input: "read_batch_features/fifo_queue_Dequeue:16"
  input: "ExpandDims_31/dim"
  device: "/device:CPU:0"
  attr {
    key: "T"
    value {
      type: DT_INT64
    }
  }
  attr {
    key: "Tdim"
    value {
      type: DT_INT32
    }
  }
  attr {
    key: "_output_shapes"
    value {
      list {
        shape {
          dim {
            size: 303
          }
          dim {
            size: 1
          }
        }
      }
    }
  }
}
node {
  name: "ExpandDims_32/dim"
  op: "Const"
  device: "/device:CPU:0"
  attr {
    key: "_output_shapes"
    value {
      list {
        shape {
        }
      }
    }
  }
  attr {
    key: "dtype"
    value {
      type: DT_INT32
    }
  }
  attr {
    key: "value"
    value {
      tensor {
        dtype: DT_INT32
        tensor_shape {
        }
        int_val: -1
      }
    }
  }
}
node {
  name: "ExpandDims_32"
  op: "ExpandDims"
  input: "read_batch_features/fifo_queue_Dequeue:2"
  input: "ExpandDims_32/dim"
  device: "/device:CPU:0"
  attr {
    key: "T"
    value {
      type: DT_FLOAT
    }
  }
  attr {
    key: "Tdim"
    value {
      type: DT_INT32
    }
  }
  attr {
    key: "_output_shapes"
    value {
      list {
        shape {
          dim {
            size: 303
          }
          dim {
            size: 1
          }
        }
      }
    }
  }
}
node {
  name: "ExpandDims_33/dim"
  op: "Const"
  device: "/device:CPU:0"
  attr {
    key: "_output_shapes"
    value {
      list {
        shape {
        }
      }
    }
  }
  attr {
    key: "dtype"
    value {
      type: DT_INT32
    }
  }
  attr {
    key: "value"
    value {
      tensor {
        dtype: DT_INT32
        tensor_shape {
        }
        int_val: -1
      }
    }
  }
}
node {
  name: "ExpandDims_33"
  op: "ExpandDims"
  input: "read_batch_features/fifo_queue_Dequeue:22"
  input: "ExpandDims_33/dim"
  device: "/device:CPU:0"
  attr {
    key: "T"
    value {
      type: DT_INT64
    }
  }
  attr {
    key: "Tdim"
    value {
      type: DT_INT32
    }
  }
  attr {
    key: "_output_shapes"
    value {
      list {
        shape {
          dim {
            size: 303
          }
          dim {
            size: 1
          }
        }
      }
    }
  }
}
node {
  name: "ExpandDims_34/dim"
  op: "Const"
  device: "/device:CPU:0"
  attr {
    key: "_output_shapes"
    value {
      list {
        shape {
        }
      }
    }
  }
  attr {
    key: "dtype"
    value {
      type: DT_INT32
    }
  }
  attr {
    key: "value"
    value {
      tensor {
        dtype: DT_INT32
        tensor_shape {
        }
        int_val: -1
      }
    }
  }
}
node {
  name: "ExpandDims_34"
  op: "ExpandDims"
  input: "read_batch_features/fifo_queue_Dequeue:7"
  input: "ExpandDims_34/dim"
  device: "/device:CPU:0"
  attr {
    key: "T"
    value {
      type: DT_INT64
    }
  }
  attr {
    key: "Tdim"
    value {
      type: DT_INT32
    }
  }
  attr {
    key: "_output_shapes"
    value {
      list {
        shape {
          dim {
            size: 303
          }
          dim {
            size: 1
          }
        }
      }
    }
  }
}
node {
  name: "linear/linear_model/activity/Shape"
  op: "Const"
  attr {
    key: "_output_shapes"
    value {
      list {
        shape {
          dim {
            size: 2
          }
        }
      }
    }
  }
  attr {
    key: "dtype"
    value {
      type: DT_INT32
    }
  }
  attr {
    key: "value"
    value {
      tensor {
        dtype: DT_INT32
        tensor_shape {
          dim {
            size: 2
          }
        }
        tensor_content: "/\001\000\000\001\000\000\000"
      }
    }
  }
}
node {
  name: "linear/linear_model/activity/strided_slice/stack"
  op: "Const"
  attr {
    key: "_output_shapes"
    value {
      list {
        shape {
          dim {
            size: 1
          }
        }
      }
    }
  }
  attr {
    key: "dtype"
    value {
      type: DT_INT32
    }
  }
  attr {
    key: "value"
    value {
      tensor {
        dtype: DT_INT32
        tensor_shape {
          dim {
            size: 1
          }
        }
        int_val: 0
      }
    }
  }
}
node {
  name: "linear/linear_model/activity/strided_slice/stack_1"
  op: "Const"
  attr {
    key: "_output_shapes"
    value {
      list {
        shape {
          dim {
            size: 1
          }
        }
      }
    }
  }
  attr {
    key: "dtype"
    value {
      type: DT_INT32
    }
  }
  attr {
    key: "value"
    value {
      tensor {
        dtype: DT_INT32
        tensor_shape {
          dim {
            size: 1
          }
        }
        int_val: 1
      }
    }
  }
}
node {
  name: "linear/linear_model/activity/strided_slice/stack_2"
  op: "Const"
  attr {
    key: "_output_shapes"
    value {
      list {
        shape {
          dim {
            size: 1
          }
        }
      }
    }
  }
  attr {
    key: "dtype"
    value {
      type: DT_INT32
    }
  }
  attr {
    key: "value"
    value {
      tensor {
        dtype: DT_INT32
        tensor_shape {
          dim {
            size: 1
          }
        }
        int_val: 1
      }
    }
  }
}
node {
  name: "linear/linear_model/activity/strided_slice"
  op: "StridedSlice"
  input: "linear/linear_model/activity/Shape"
  input: "linear/linear_model/activity/strided_slice/stack"
  input: "linear/linear_model/activity/strided_slice/stack_1"
  input: "linear/linear_model/activity/strided_slice/stack_2"
  attr {
    key: "Index"
    value {
      type: DT_INT32
    }
  }
  attr {
    key: "T"
    value {
      type: DT_INT32
    }
  }
  attr {
    key: "_output_shapes"
    value {
      list {
        shape {
        }
      }
    }
  }
  attr {
    key: "begin_mask"
    value {
      i: 0
    }
  }
  attr {
    key: "ellipsis_mask"
    value {
      i: 0
    }
  }
  attr {
    key: "end_mask"
    value {
      i: 0
    }
  }
  attr {
    key: "new_axis_mask"
    value {
      i: 0
    }
  }
  attr {
    key: "shrink_axis_mask"
    value {
      i: 1
    }
  }
}
node {
  name: "linear/linear_model/activity/Reshape/shape/1"
  op: "Const"
  attr {
    key: "_output_shapes"
    value {
      list {
        shape {
        }
      }
    }
  }
  attr {
    key: "dtype"
    value {
      type: DT_INT32
    }
  }
  attr {
    key: "value"
    value {
      tensor {
        dtype: DT_INT32
        tensor_shape {
        }
        int_val: 1
      }
    }
  }
}
node {
  name: "linear/linear_model/activity/Reshape/shape"
  op: "Pack"
  input: "linear/linear_model/activity/strided_slice"
  input: "linear/linear_model/activity/Reshape/shape/1"
  attr {
    key: "N"
    value {
      i: 2
    }
  }
  attr {
    key: "T"
    value {
      type: DT_INT32
    }
  }
  attr {
    key: "_output_shapes"
    value {
      list {
        shape {
          dim {
            size: 2
          }
        }
      }
    }
  }
  attr {
    key: "axis"
    value {
      i: 0
    }
  }
}
node {
  name: "linear/linear_model/activity/Reshape"
  op: "Reshape"
  input: "ExpandDims_21"
  input: "linear/linear_model/activity/Reshape/shape"
  attr {
    key: "T"
    value {
      type: DT_FLOAT
    }
  }
  attr {
    key: "Tshape"
    value {
      type: DT_INT32
    }
  }
  attr {
    key: "_output_shapes"
    value {
      list {
        shape {
          dim {
            size: 303
          }
          dim {
            size: 1
          }
        }
      }
    }
  }
}
node {
  name: "linear/linear_model/activity/weights/part_0/Initializer/zeros"
  op: "Const"
  attr {
    key: "_class"
    value {
      list {
        s: "loc:@linear/linear_model/activity/weights/part_0"
      }
    }
  }
  attr {
    key: "_output_shapes"
    value {
      list {
        shape {
          dim {
            size: 1
          }
          dim {
            size: 1
          }
        }
      }
    }
  }
  attr {
    key: "dtype"
    value {
      type: DT_FLOAT
    }
  }
  attr {
    key: "value"
    value {
      tensor {
        dtype: DT_FLOAT
        tensor_shape {
          dim {
            size: 1
          }
          dim {
            size: 1
          }
        }
        float_val: 0.0
      }
    }
  }
}
node {
  name: "linear/linear_model/activity/weights/part_0"
  op: "VariableV2"
  attr {
    key: "_class"
    value {
      list {
        s: "loc:@linear/linear_model/activity/weights/part_0"
      }
    }
  }
  attr {
    key: "_output_shapes"
    value {
      list {
        shape {
          dim {
            size: 1
          }
          dim {
            size: 1
          }
        }
      }
    }
  }
  attr {
    key: "container"
    value {
      s: ""
    }
  }
  attr {
    key: "dtype"
    value {
      type: DT_FLOAT
    }
  }
  attr {
    key: "shape"
    value {
      shape {
        dim {
          size: 1
        }
        dim {
          size: 1
        }
      }
    }
  }
  attr {
    key: "shared_name"
    value {
      s: ""
    }
  }
}
node {
  name: "linear/linear_model/activity/weights/part_0/Assign"
  op: "Assign"
  input: "linear/linear_model/activity/weights/part_0"
  input: "linear/linear_model/activity/weights/part_0/Initializer/zeros"
  attr {
    key: "T"
    value {
      type: DT_FLOAT
    }
  }
  attr {
    key: "_class"
    value {
      list {
        s: "loc:@linear/linear_model/activity/weights/part_0"
      }
    }
  }
  attr {
    key: "_output_shapes"
    value {
      list {
        shape {
          dim {
            size: 1
          }
          dim {
            size: 1
          }
        }
      }
    }
  }
  attr {
    key: "use_locking"
    value {
      b: true
    }
  }
  attr {
    key: "validate_shape"
    value {
      b: true
    }
  }
}
node {
  name: "linear/linear_model/activity/weights/part_0/read"
  op: "Identity"
  input: "linear/linear_model/activity/weights/part_0"
  attr {
    key: "T"
    value {
      type: DT_FLOAT
    }
  }
  attr {
    key: "_class"
    value {
      list {
        s: "loc:@linear/linear_model/activity/weights/part_0"
      }
    }
  }
  attr {
    key: "_output_shapes"
    value {
      list {
        shape {
          dim {
            size: 1
          }
          dim {
            size: 1
          }
        }
      }
    }
  }
}
node {
  name: "linear/linear_model/activity/weights"
  op: "Identity"
  input: "linear/linear_model/activity/weights/part_0/read"
  attr {
    key: "T"
    value {
      type: DT_FLOAT
    }
  }
  attr {
    key: "_output_shapes"
    value {
      list {
        shape {
          dim {
            size: 1
          }
          dim {
            size: 1
          }
        }
      }
    }
  }
}
node {
  name: "linear/linear_model/activity/weighted_sum"
  op: "MatMul"
  input: "linear/linear_model/activity/Reshape"
  input: "linear/linear_model/activity/weights"
  attr {
    key: "T"
    value {
      type: DT_FLOAT
    }
  }
  attr {
    key: "_output_shapes"
    value {
      list {
        shape {
          dim {
            size: 303
          }
          dim {
            size: 1
          }
        }
      }
    }
  }
  attr {
    key: "transpose_a"
    value {
      b: false
    }
  }
  attr {
    key: "transpose_b"
    value {
      b: false
    }
  }
}
node {
  name: "linear/linear_model/age/Shape"
  op: "Const"
  attr {
    key: "_output_shapes"
    value {
      list {
        shape {
          dim {
            size: 2
          }
        }
      }
    }
  }
  attr {
    key: "dtype"
    value {
      type: DT_INT32
    }
  }
  attr {
    key: "value"
    value {
      tensor {
        dtype: DT_INT32
        tensor_shape {
          dim {
            size: 2
          }
        }
        tensor_content: "/\001\000\000\001\000\000\000"
      }
    }
  }
}
node {
  name: "linear/linear_model/age/strided_slice/stack"
  op: "Const"
  attr {
    key: "_output_shapes"
    value {
      list {
        shape {
          dim {
            size: 1
          }
        }
      }
    }
  }
  attr {
    key: "dtype"
    value {
      type: DT_INT32
    }
  }
  attr {
    key: "value"
    value {
      tensor {
        dtype: DT_INT32
        tensor_shape {
          dim {
            size: 1
          }
        }
        int_val: 0
      }
    }
  }
}
node {
  name: "linear/linear_model/age/strided_slice/stack_1"
  op: "Const"
  attr {
    key: "_output_shapes"
    value {
      list {
        shape {
          dim {
            size: 1
          }
        }
      }
    }
  }
  attr {
    key: "dtype"
    value {
      type: DT_INT32
    }
  }
  attr {
    key: "value"
    value {
      tensor {
        dtype: DT_INT32
        tensor_shape {
          dim {
            size: 1
          }
        }
        int_val: 1
      }
    }
  }
}
node {
  name: "linear/linear_model/age/strided_slice/stack_2"
  op: "Const"
  attr {
    key: "_output_shapes"
    value {
      list {
        shape {
          dim {
            size: 1
          }
        }
      }
    }
  }
  attr {
    key: "dtype"
    value {
      type: DT_INT32
    }
  }
  attr {
    key: "value"
    value {
      tensor {
        dtype: DT_INT32
        tensor_shape {
          dim {
            size: 1
          }
        }
        int_val: 1
      }
    }
  }
}
node {
  name: "linear/linear_model/age/strided_slice"
  op: "StridedSlice"
  input: "linear/linear_model/age/Shape"
  input: "linear/linear_model/age/strided_slice/stack"
  input: "linear/linear_model/age/strided_slice/stack_1"
  input: "linear/linear_model/age/strided_slice/stack_2"
  attr {
    key: "Index"
    value {
      type: DT_INT32
    }
  }
  attr {
    key: "T"
    value {
      type: DT_INT32
    }
  }
  attr {
    key: "_output_shapes"
    value {
      list {
        shape {
        }
      }
    }
  }
  attr {
    key: "begin_mask"
    value {
      i: 0
    }
  }
  attr {
    key: "ellipsis_mask"
    value {
      i: 0
    }
  }
  attr {
    key: "end_mask"
    value {
      i: 0
    }
  }
  attr {
    key: "new_axis_mask"
    value {
      i: 0
    }
  }
  attr {
    key: "shrink_axis_mask"
    value {
      i: 1
    }
  }
}
node {
  name: "linear/linear_model/age/Reshape/shape/1"
  op: "Const"
  attr {
    key: "_output_shapes"
    value {
      list {
        shape {
        }
      }
    }
  }
  attr {
    key: "dtype"
    value {
      type: DT_INT32
    }
  }
  attr {
    key: "value"
    value {
      tensor {
        dtype: DT_INT32
        tensor_shape {
        }
        int_val: 1
      }
    }
  }
}
node {
  name: "linear/linear_model/age/Reshape/shape"
  op: "Pack"
  input: "linear/linear_model/age/strided_slice"
  input: "linear/linear_model/age/Reshape/shape/1"
  attr {
    key: "N"
    value {
      i: 2
    }
  }
  attr {
    key: "T"
    value {
      type: DT_INT32
    }
  }
  attr {
    key: "_output_shapes"
    value {
      list {
        shape {
          dim {
            size: 2
          }
        }
      }
    }
  }
  attr {
    key: "axis"
    value {
      i: 0
    }
  }
}
node {
  name: "linear/linear_model/age/Reshape"
  op: "Reshape"
  input: "ExpandDims_28"
  input: "linear/linear_model/age/Reshape/shape"
  attr {
    key: "T"
    value {
      type: DT_FLOAT
    }
  }
  attr {
    key: "Tshape"
    value {
      type: DT_INT32
    }
  }
  attr {
    key: "_output_shapes"
    value {
      list {
        shape {
          dim {
            size: 303
          }
          dim {
            size: 1
          }
        }
      }
    }
  }
}
node {
  name: "linear/linear_model/age/weights/part_0/Initializer/zeros"
  op: "Const"
  attr {
    key: "_class"
    value {
      list {
        s: "loc:@linear/linear_model/age/weights/part_0"
      }
    }
  }
  attr {
    key: "_output_shapes"
    value {
      list {
        shape {
          dim {
            size: 1
          }
          dim {
            size: 1
          }
        }
      }
    }
  }
  attr {
    key: "dtype"
    value {
      type: DT_FLOAT
    }
  }
  attr {
    key: "value"
    value {
      tensor {
        dtype: DT_FLOAT
        tensor_shape {
          dim {
            size: 1
          }
          dim {
            size: 1
          }
        }
        float_val: 0.0
      }
    }
  }
}
node {
  name: "linear/linear_model/age/weights/part_0"
  op: "VariableV2"
  attr {
    key: "_class"
    value {
      list {
        s: "loc:@linear/linear_model/age/weights/part_0"
      }
    }
  }
  attr {
    key: "_output_shapes"
    value {
      list {
        shape {
          dim {
            size: 1
          }
          dim {
            size: 1
          }
        }
      }
    }
  }
  attr {
    key: "container"
    value {
      s: ""
    }
  }
  attr {
    key: "dtype"
    value {
      type: DT_FLOAT
    }
  }
  attr {
    key: "shape"
    value {
      shape {
        dim {
          size: 1
        }
        dim {
          size: 1
        }
      }
    }
  }
  attr {
    key: "shared_name"
    value {
      s: ""
    }
  }
}
node {
  name: "linear/linear_model/age/weights/part_0/Assign"
  op: "Assign"
  input: "linear/linear_model/age/weights/part_0"
  input: "linear/linear_model/age/weights/part_0/Initializer/zeros"
  attr {
    key: "T"
    value {
      type: DT_FLOAT
    }
  }
  attr {
    key: "_class"
    value {
      list {
        s: "loc:@linear/linear_model/age/weights/part_0"
      }
    }
  }
  attr {
    key: "_output_shapes"
    value {
      list {
        shape {
          dim {
            size: 1
          }
          dim {
            size: 1
          }
        }
      }
    }
  }
  attr {
    key: "use_locking"
    value {
      b: true
    }
  }
  attr {
    key: "validate_shape"
    value {
      b: true
    }
  }
}
node {
  name: "linear/linear_model/age/weights/part_0/read"
  op: "Identity"
  input: "linear/linear_model/age/weights/part_0"
  attr {
    key: "T"
    value {
      type: DT_FLOAT
    }
  }
  attr {
    key: "_class"
    value {
      list {
        s: "loc:@linear/linear_model/age/weights/part_0"
      }
    }
  }
  attr {
    key: "_output_shapes"
    value {
      list {
        shape {
          dim {
            size: 1
          }
          dim {
            size: 1
          }
        }
      }
    }
  }
}
node {
  name: "linear/linear_model/age/weights"
  op: "Identity"
  input: "linear/linear_model/age/weights/part_0/read"
  attr {
    key: "T"
    value {
      type: DT_FLOAT
    }
  }
  attr {
    key: "_output_shapes"
    value {
      list {
        shape {
          dim {
            size: 1
          }
          dim {
            size: 1
          }
        }
      }
    }
  }
}
node {
  name: "linear/linear_model/age/weighted_sum"
  op: "MatMul"
  input: "linear/linear_model/age/Reshape"
  input: "linear/linear_model/age/weights"
  attr {
    key: "T"
    value {
      type: DT_FLOAT
    }
  }
  attr {
    key: "_output_shapes"
    value {
      list {
        shape {
          dim {
            size: 303
          }
          dim {
            size: 1
          }
        }
      }
    }
  }
  attr {
    key: "transpose_a"
    value {
      b: false
    }
  }
  attr {
    key: "transpose_b"
    value {
      b: false
    }
  }
}
node {
  name: "linear/linear_model/artistic/Shape"
  op: "Const"
  attr {
    key: "_output_shapes"
    value {
      list {
        shape {
          dim {
            size: 2
          }
        }
      }
    }
  }
  attr {
    key: "dtype"
    value {
      type: DT_INT32
    }
  }
  attr {
    key: "value"
    value {
      tensor {
        dtype: DT_INT32
        tensor_shape {
          dim {
            size: 2
          }
        }
        tensor_content: "/\001\000\000\001\000\000\000"
      }
    }
  }
}
node {
  name: "linear/linear_model/artistic/strided_slice/stack"
  op: "Const"
  attr {
    key: "_output_shapes"
    value {
      list {
        shape {
          dim {
            size: 1
          }
        }
      }
    }
  }
  attr {
    key: "dtype"
    value {
      type: DT_INT32
    }
  }
  attr {
    key: "value"
    value {
      tensor {
        dtype: DT_INT32
        tensor_shape {
          dim {
            size: 1
          }
        }
        int_val: 0
      }
    }
  }
}
node {
  name: "linear/linear_model/artistic/strided_slice/stack_1"
  op: "Const"
  attr {
    key: "_output_shapes"
    value {
      list {
        shape {
          dim {
            size: 1
          }
        }
      }
    }
  }
  attr {
    key: "dtype"
    value {
      type: DT_INT32
    }
  }
  attr {
    key: "value"
    value {
      tensor {
        dtype: DT_INT32
        tensor_shape {
          dim {
            size: 1
          }
        }
        int_val: 1
      }
    }
  }
}
node {
  name: "linear/linear_model/artistic/strided_slice/stack_2"
  op: "Const"
  attr {
    key: "_output_shapes"
    value {
      list {
        shape {
          dim {
            size: 1
          }
        }
      }
    }
  }
  attr {
    key: "dtype"
    value {
      type: DT_INT32
    }
  }
  attr {
    key: "value"
    value {
      tensor {
        dtype: DT_INT32
        tensor_shape {
          dim {
            size: 1
          }
        }
        int_val: 1
      }
    }
  }
}
node {
  name: "linear/linear_model/artistic/strided_slice"
  op: "StridedSlice"
  input: "linear/linear_model/artistic/Shape"
  input: "linear/linear_model/artistic/strided_slice/stack"
  input: "linear/linear_model/artistic/strided_slice/stack_1"
  input: "linear/linear_model/artistic/strided_slice/stack_2"
  attr {
    key: "Index"
    value {
      type: DT_INT32
    }
  }
  attr {
    key: "T"
    value {
      type: DT_INT32
    }
  }
  attr {
    key: "_output_shapes"
    value {
      list {
        shape {
        }
      }
    }
  }
  attr {
    key: "begin_mask"
    value {
      i: 0
    }
  }
  attr {
    key: "ellipsis_mask"
    value {
      i: 0
    }
  }
  attr {
    key: "end_mask"
    value {
      i: 0
    }
  }
  attr {
    key: "new_axis_mask"
    value {
      i: 0
    }
  }
  attr {
    key: "shrink_axis_mask"
    value {
      i: 1
    }
  }
}
node {
  name: "linear/linear_model/artistic/Reshape/shape/1"
  op: "Const"
  attr {
    key: "_output_shapes"
    value {
      list {
        shape {
        }
      }
    }
  }
  attr {
    key: "dtype"
    value {
      type: DT_INT32
    }
  }
  attr {
    key: "value"
    value {
      tensor {
        dtype: DT_INT32
        tensor_shape {
        }
        int_val: 1
      }
    }
  }
}
node {
  name: "linear/linear_model/artistic/Reshape/shape"
  op: "Pack"
  input: "linear/linear_model/artistic/strided_slice"
  input: "linear/linear_model/artistic/Reshape/shape/1"
  attr {
    key: "N"
    value {
      i: 2
    }
  }
  attr {
    key: "T"
    value {
      type: DT_INT32
    }
  }
  attr {
    key: "_output_shapes"
    value {
      list {
        shape {
          dim {
            size: 2
          }
        }
      }
    }
  }
  attr {
    key: "axis"
    value {
      i: 0
    }
  }
}
node {
  name: "linear/linear_model/artistic/Reshape"
  op: "Reshape"
  input: "ExpandDims_32"
  input: "linear/linear_model/artistic/Reshape/shape"
  attr {
    key: "T"
    value {
      type: DT_FLOAT
    }
  }
  attr {
    key: "Tshape"
    value {
      type: DT_INT32
    }
  }
  attr {
    key: "_output_shapes"
    value {
      list {
        shape {
          dim {
            size: 303
          }
          dim {
            size: 1
          }
        }
      }
    }
  }
}
node {
  name: "linear/linear_model/artistic/weights/part_0/Initializer/zeros"
  op: "Const"
  attr {
    key: "_class"
    value {
      list {
        s: "loc:@linear/linear_model/artistic/weights/part_0"
      }
    }
  }
  attr {
    key: "_output_shapes"
    value {
      list {
        shape {
          dim {
            size: 1
          }
          dim {
            size: 1
          }
        }
      }
    }
  }
  attr {
    key: "dtype"
    value {
      type: DT_FLOAT
    }
  }
  attr {
    key: "value"
    value {
      tensor {
        dtype: DT_FLOAT
        tensor_shape {
          dim {
            size: 1
          }
          dim {
            size: 1
          }
        }
        float_val: 0.0
      }
    }
  }
}
node {
  name: "linear/linear_model/artistic/weights/part_0"
  op: "VariableV2"
  attr {
    key: "_class"
    value {
      list {
        s: "loc:@linear/linear_model/artistic/weights/part_0"
      }
    }
  }
  attr {
    key: "_output_shapes"
    value {
      list {
        shape {
          dim {
            size: 1
          }
          dim {
            size: 1
          }
        }
      }
    }
  }
  attr {
    key: "container"
    value {
      s: ""
    }
  }
  attr {
    key: "dtype"
    value {
      type: DT_FLOAT
    }
  }
  attr {
    key: "shape"
    value {
      shape {
        dim {
          size: 1
        }
        dim {
          size: 1
        }
      }
    }
  }
  attr {
    key: "shared_name"
    value {
      s: ""
    }
  }
}
node {
  name: "linear/linear_model/artistic/weights/part_0/Assign"
  op: "Assign"
  input: "linear/linear_model/artistic/weights/part_0"
  input: "linear/linear_model/artistic/weights/part_0/Initializer/zeros"
  attr {
    key: "T"
    value {
      type: DT_FLOAT
    }
  }
  attr {
    key: "_class"
    value {
      list {
        s: "loc:@linear/linear_model/artistic/weights/part_0"
      }
    }
  }
  attr {
    key: "_output_shapes"
    value {
      list {
        shape {
          dim {
            size: 1
          }
          dim {
            size: 1
          }
        }
      }
    }
  }
  attr {
    key: "use_locking"
    value {
      b: true
    }
  }
  attr {
    key: "validate_shape"
    value {
      b: true
    }
  }
}
node {
  name: "linear/linear_model/artistic/weights/part_0/read"
  op: "Identity"
  input: "linear/linear_model/artistic/weights/part_0"
  attr {
    key: "T"
    value {
      type: DT_FLOAT
    }
  }
  attr {
    key: "_class"
    value {
      list {
        s: "loc:@linear/linear_model/artistic/weights/part_0"
      }
    }
  }
  attr {
    key: "_output_shapes"
    value {
      list {
        shape {
          dim {
            size: 1
          }
          dim {
            size: 1
          }
        }
      }
    }
  }
}
node {
  name: "linear/linear_model/artistic/weights"
  op: "Identity"
  input: "linear/linear_model/artistic/weights/part_0/read"
  attr {
    key: "T"
    value {
      type: DT_FLOAT
    }
  }
  attr {
    key: "_output_shapes"
    value {
      list {
        shape {
          dim {
            size: 1
          }
          dim {
            size: 1
          }
        }
      }
    }
  }
}
node {
  name: "linear/linear_model/artistic/weighted_sum"
  op: "MatMul"
  input: "linear/linear_model/artistic/Reshape"
  input: "linear/linear_model/artistic/weights"
  attr {
    key: "T"
    value {
      type: DT_FLOAT
    }
  }
  attr {
    key: "_output_shapes"
    value {
      list {
        shape {
          dim {
            size: 303
          }
          dim {
            size: 1
          }
        }
      }
    }
  }
  attr {
    key: "transpose_a"
    value {
      b: false
    }
  }
  attr {
    key: "transpose_b"
    value {
      b: false
    }
  }
}
node {
  name: "linear/linear_model/concentration/Shape"
  op: "Const"
  attr {
    key: "_output_shapes"
    value {
      list {
        shape {
          dim {
            size: 2
          }
        }
      }
    }
  }
  attr {
    key: "dtype"
    value {
      type: DT_INT32
    }
  }
  attr {
    key: "value"
    value {
      tensor {
        dtype: DT_INT32
        tensor_shape {
          dim {
            size: 2
          }
        }
        tensor_content: "/\001\000\000\001\000\000\000"
      }
    }
  }
}
node {
  name: "linear/linear_model/concentration/strided_slice/stack"
  op: "Const"
  attr {
    key: "_output_shapes"
    value {
      list {
        shape {
          dim {
            size: 1
          }
        }
      }
    }
  }
  attr {
    key: "dtype"
    value {
      type: DT_INT32
    }
  }
  attr {
    key: "value"
    value {
      tensor {
        dtype: DT_INT32
        tensor_shape {
          dim {
            size: 1
          }
        }
        int_val: 0
      }
    }
  }
}
node {
  name: "linear/linear_model/concentration/strided_slice/stack_1"
  op: "Const"
  attr {
    key: "_output_shapes"
    value {
      list {
        shape {
          dim {
            size: 1
          }
        }
      }
    }
  }
  attr {
    key: "dtype"
    value {
      type: DT_INT32
    }
  }
  attr {
    key: "value"
    value {
      tensor {
        dtype: DT_INT32
        tensor_shape {
          dim {
            size: 1
          }
        }
        int_val: 1
      }
    }
  }
}
node {
  name: "linear/linear_model/concentration/strided_slice/stack_2"
  op: "Const"
  attr {
    key: "_output_shapes"
    value {
      list {
        shape {
          dim {
            size: 1
          }
        }
      }
    }
  }
  attr {
    key: "dtype"
    value {
      type: DT_INT32
    }
  }
  attr {
    key: "value"
    value {
      tensor {
        dtype: DT_INT32
        tensor_shape {
          dim {
            size: 1
          }
        }
        int_val: 1
      }
    }
  }
}
node {
  name: "linear/linear_model/concentration/strided_slice"
  op: "StridedSlice"
  input: "linear/linear_model/concentration/Shape"
  input: "linear/linear_model/concentration/strided_slice/stack"
  input: "linear/linear_model/concentration/strided_slice/stack_1"
  input: "linear/linear_model/concentration/strided_slice/stack_2"
  attr {
    key: "Index"
    value {
      type: DT_INT32
    }
  }
  attr {
    key: "T"
    value {
      type: DT_INT32
    }
  }
  attr {
    key: "_output_shapes"
    value {
      list {
        shape {
        }
      }
    }
  }
  attr {
    key: "begin_mask"
    value {
      i: 0
    }
  }
  attr {
    key: "ellipsis_mask"
    value {
      i: 0
    }
  }
  attr {
    key: "end_mask"
    value {
      i: 0
    }
  }
  attr {
    key: "new_axis_mask"
    value {
      i: 0
    }
  }
  attr {
    key: "shrink_axis_mask"
    value {
      i: 1
    }
  }
}
node {
  name: "linear/linear_model/concentration/Reshape/shape/1"
  op: "Const"
  attr {
    key: "_output_shapes"
    value {
      list {
        shape {
        }
      }
    }
  }
  attr {
    key: "dtype"
    value {
      type: DT_INT32
    }
  }
  attr {
    key: "value"
    value {
      tensor {
        dtype: DT_INT32
        tensor_shape {
        }
        int_val: 1
      }
    }
  }
}
node {
  name: "linear/linear_model/concentration/Reshape/shape"
  op: "Pack"
  input: "linear/linear_model/concentration/strided_slice"
  input: "linear/linear_model/concentration/Reshape/shape/1"
  attr {
    key: "N"
    value {
      i: 2
    }
  }
  attr {
    key: "T"
    value {
      type: DT_INT32
    }
  }
  attr {
    key: "_output_shapes"
    value {
      list {
        shape {
          dim {
            size: 2
          }
        }
      }
    }
  }
  attr {
    key: "axis"
    value {
      i: 0
    }
  }
}
node {
  name: "linear/linear_model/concentration/Reshape"
  op: "Reshape"
  input: "ExpandDims_9"
  input: "linear/linear_model/concentration/Reshape/shape"
  attr {
    key: "T"
    value {
      type: DT_FLOAT
    }
  }
  attr {
    key: "Tshape"
    value {
      type: DT_INT32
    }
  }
  attr {
    key: "_output_shapes"
    value {
      list {
        shape {
          dim {
            size: 303
          }
          dim {
            size: 1
          }
        }
      }
    }
  }
}
node {
  name: "linear/linear_model/concentration/weights/part_0/Initializer/zeros"
  op: "Const"
  attr {
    key: "_class"
    value {
      list {
        s: "loc:@linear/linear_model/concentration/weights/part_0"
      }
    }
  }
  attr {
    key: "_output_shapes"
    value {
      list {
        shape {
          dim {
            size: 1
          }
          dim {
            size: 1
          }
        }
      }
    }
  }
  attr {
    key: "dtype"
    value {
      type: DT_FLOAT
    }
  }
  attr {
    key: "value"
    value {
      tensor {
        dtype: DT_FLOAT
        tensor_shape {
          dim {
            size: 1
          }
          dim {
            size: 1
          }
        }
        float_val: 0.0
      }
    }
  }
}
node {
  name: "linear/linear_model/concentration/weights/part_0"
  op: "VariableV2"
  attr {
    key: "_class"
    value {
      list {
        s: "loc:@linear/linear_model/concentration/weights/part_0"
      }
    }
  }
  attr {
    key: "_output_shapes"
    value {
      list {
        shape {
          dim {
            size: 1
          }
          dim {
            size: 1
          }
        }
      }
    }
  }
  attr {
    key: "container"
    value {
      s: ""
    }
  }
  attr {
    key: "dtype"
    value {
      type: DT_FLOAT
    }
  }
  attr {
    key: "shape"
    value {
      shape {
        dim {
          size: 1
        }
        dim {
          size: 1
        }
      }
    }
  }
  attr {
    key: "shared_name"
    value {
      s: ""
    }
  }
}
node {
  name: "linear/linear_model/concentration/weights/part_0/Assign"
  op: "Assign"
  input: "linear/linear_model/concentration/weights/part_0"
  input: "linear/linear_model/concentration/weights/part_0/Initializer/zeros"
  attr {
    key: "T"
    value {
      type: DT_FLOAT
    }
  }
  attr {
    key: "_class"
    value {
      list {
        s: "loc:@linear/linear_model/concentration/weights/part_0"
      }
    }
  }
  attr {
    key: "_output_shapes"
    value {
      list {
        shape {
          dim {
            size: 1
          }
          dim {
            size: 1
          }
        }
      }
    }
  }
  attr {
    key: "use_locking"
    value {
      b: true
    }
  }
  attr {
    key: "validate_shape"
    value {
      b: true
    }
  }
}
node {
  name: "linear/linear_model/concentration/weights/part_0/read"
  op: "Identity"
  input: "linear/linear_model/concentration/weights/part_0"
  attr {
    key: "T"
    value {
      type: DT_FLOAT
    }
  }
  attr {
    key: "_class"
    value {
      list {
        s: "loc:@linear/linear_model/concentration/weights/part_0"
      }
    }
  }
  attr {
    key: "_output_shapes"
    value {
      list {
        shape {
          dim {
            size: 1
          }
          dim {
            size: 1
          }
        }
      }
    }
  }
}
node {
  name: "linear/linear_model/concentration/weights"
  op: "Identity"
  input: "linear/linear_model/concentration/weights/part_0/read"
  attr {
    key: "T"
    value {
      type: DT_FLOAT
    }
  }
  attr {
    key: "_output_shapes"
    value {
      list {
        shape {
          dim {
            size: 1
          }
          dim {
            size: 1
          }
        }
      }
    }
  }
}
node {
  name: "linear/linear_model/concentration/weighted_sum"
  op: "MatMul"
  input: "linear/linear_model/concentration/Reshape"
  input: "linear/linear_model/concentration/weights"
  attr {
    key: "T"
    value {
      type: DT_FLOAT
    }
  }
  attr {
    key: "_output_shapes"
    value {
      list {
        shape {
          dim {
            size: 303
          }
          dim {
            size: 1
          }
        }
      }
    }
  }
  attr {
    key: "transpose_a"
    value {
      b: false
    }
  }
  attr {
    key: "transpose_b"
    value {
      b: false
    }
  }
}
node {
  name: "linear/linear_model/engagement/Shape"
  op: "Const"
  attr {
    key: "_output_shapes"
    value {
      list {
        shape {
          dim {
            size: 2
          }
        }
      }
    }
  }
  attr {
    key: "dtype"
    value {
      type: DT_INT32
    }
  }
  attr {
    key: "value"
    value {
      tensor {
        dtype: DT_INT32
        tensor_shape {
          dim {
            size: 2
          }
        }
        tensor_content: "/\001\000\000\001\000\000\000"
      }
    }
  }
}
node {
  name: "linear/linear_model/engagement/strided_slice/stack"
  op: "Const"
  attr {
    key: "_output_shapes"
    value {
      list {
        shape {
          dim {
            size: 1
          }
        }
      }
    }
  }
  attr {
    key: "dtype"
    value {
      type: DT_INT32
    }
  }
  attr {
    key: "value"
    value {
      tensor {
        dtype: DT_INT32
        tensor_shape {
          dim {
            size: 1
          }
        }
        int_val: 0
      }
    }
  }
}
node {
  name: "linear/linear_model/engagement/strided_slice/stack_1"
  op: "Const"
  attr {
    key: "_output_shapes"
    value {
      list {
        shape {
          dim {
            size: 1
          }
        }
      }
    }
  }
  attr {
    key: "dtype"
    value {
      type: DT_INT32
    }
  }
  attr {
    key: "value"
    value {
      tensor {
        dtype: DT_INT32
        tensor_shape {
          dim {
            size: 1
          }
        }
        int_val: 1
      }
    }
  }
}
node {
  name: "linear/linear_model/engagement/strided_slice/stack_2"
  op: "Const"
  attr {
    key: "_output_shapes"
    value {
      list {
        shape {
          dim {
            size: 1
          }
        }
      }
    }
  }
  attr {
    key: "dtype"
    value {
      type: DT_INT32
    }
  }
  attr {
    key: "value"
    value {
      tensor {
        dtype: DT_INT32
        tensor_shape {
          dim {
            size: 1
          }
        }
        int_val: 1
      }
    }
  }
}
node {
  name: "linear/linear_model/engagement/strided_slice"
  op: "StridedSlice"
  input: "linear/linear_model/engagement/Shape"
  input: "linear/linear_model/engagement/strided_slice/stack"
  input: "linear/linear_model/engagement/strided_slice/stack_1"
  input: "linear/linear_model/engagement/strided_slice/stack_2"
  attr {
    key: "Index"
    value {
      type: DT_INT32
    }
  }
  attr {
    key: "T"
    value {
      type: DT_INT32
    }
  }
  attr {
    key: "_output_shapes"
    value {
      list {
        shape {
        }
      }
    }
  }
  attr {
    key: "begin_mask"
    value {
      i: 0
    }
  }
  attr {
    key: "ellipsis_mask"
    value {
      i: 0
    }
  }
  attr {
    key: "end_mask"
    value {
      i: 0
    }
  }
  attr {
    key: "new_axis_mask"
    value {
      i: 0
    }
  }
  attr {
    key: "shrink_axis_mask"
    value {
      i: 1
    }
  }
}
node {
  name: "linear/linear_model/engagement/Reshape/shape/1"
  op: "Const"
  attr {
    key: "_output_shapes"
    value {
      list {
        shape {
        }
      }
    }
  }
  attr {
    key: "dtype"
    value {
      type: DT_INT32
    }
  }
  attr {
    key: "value"
    value {
      tensor {
        dtype: DT_INT32
        tensor_shape {
        }
        int_val: 1
      }
    }
  }
}
node {
  name: "linear/linear_model/engagement/Reshape/shape"
  op: "Pack"
  input: "linear/linear_model/engagement/strided_slice"
  input: "linear/linear_model/engagement/Reshape/shape/1"
  attr {
    key: "N"
    value {
      i: 2
    }
  }
  attr {
    key: "T"
    value {
      type: DT_INT32
    }
  }
  attr {
    key: "_output_shapes"
    value {
      list {
        shape {
          dim {
            size: 2
          }
        }
      }
    }
  }
  attr {
    key: "axis"
    value {
      i: 0
    }
  }
}
node {
  name: "linear/linear_model/engagement/Reshape"
  op: "Reshape"
  input: "ExpandDims_13"
  input: "linear/linear_model/engagement/Reshape/shape"
  attr {
    key: "T"
    value {
      type: DT_FLOAT
    }
  }
  attr {
    key: "Tshape"
    value {
      type: DT_INT32
    }
  }
  attr {
    key: "_output_shapes"
    value {
      list {
        shape {
          dim {
            size: 303
          }
          dim {
            size: 1
          }
        }
      }
    }
  }
}
node {
  name: "linear/linear_model/engagement/weights/part_0/Initializer/zeros"
  op: "Const"
  attr {
    key: "_class"
    value {
      list {
        s: "loc:@linear/linear_model/engagement/weights/part_0"
      }
    }
  }
  attr {
    key: "_output_shapes"
    value {
      list {
        shape {
          dim {
            size: 1
          }
          dim {
            size: 1
          }
        }
      }
    }
  }
  attr {
    key: "dtype"
    value {
      type: DT_FLOAT
    }
  }
  attr {
    key: "value"
    value {
      tensor {
        dtype: DT_FLOAT
        tensor_shape {
          dim {
            size: 1
          }
          dim {
            size: 1
          }
        }
        float_val: 0.0
      }
    }
  }
}
node {
  name: "linear/linear_model/engagement/weights/part_0"
  op: "VariableV2"
  attr {
    key: "_class"
    value {
      list {
        s: "loc:@linear/linear_model/engagement/weights/part_0"
      }
    }
  }
  attr {
    key: "_output_shapes"
    value {
      list {
        shape {
          dim {
            size: 1
          }
          dim {
            size: 1
          }
        }
      }
    }
  }
  attr {
    key: "container"
    value {
      s: ""
    }
  }
  attr {
    key: "dtype"
    value {
      type: DT_FLOAT
    }
  }
  attr {
    key: "shape"
    value {
      shape {
        dim {
          size: 1
        }
        dim {
          size: 1
        }
      }
    }
  }
  attr {
    key: "shared_name"
    value {
      s: ""
    }
  }
}
node {
  name: "linear/linear_model/engagement/weights/part_0/Assign"
  op: "Assign"
  input: "linear/linear_model/engagement/weights/part_0"
  input: "linear/linear_model/engagement/weights/part_0/Initializer/zeros"
  attr {
    key: "T"
    value {
      type: DT_FLOAT
    }
  }
  attr {
    key: "_class"
    value {
      list {
        s: "loc:@linear/linear_model/engagement/weights/part_0"
      }
    }
  }
  attr {
    key: "_output_shapes"
    value {
      list {
        shape {
          dim {
            size: 1
          }
          dim {
            size: 1
          }
        }
      }
    }
  }
  attr {
    key: "use_locking"
    value {
      b: true
    }
  }
  attr {
    key: "validate_shape"
    value {
      b: true
    }
  }
}
node {
  name: "linear/linear_model/engagement/weights/part_0/read"
  op: "Identity"
  input: "linear/linear_model/engagement/weights/part_0"
  attr {
    key: "T"
    value {
      type: DT_FLOAT
    }
  }
  attr {
    key: "_class"
    value {
      list {
        s: "loc:@linear/linear_model/engagement/weights/part_0"
      }
    }
  }
  attr {
    key: "_output_shapes"
    value {
      list {
        shape {
          dim {
            size: 1
          }
          dim {
            size: 1
          }
        }
      }
    }
  }
}
node {
  name: "linear/linear_model/engagement/weights"
  op: "Identity"
  input: "linear/linear_model/engagement/weights/part_0/read"
  attr {
    key: "T"
    value {
      type: DT_FLOAT
    }
  }
  attr {
    key: "_output_shapes"
    value {
      list {
        shape {
          dim {
            size: 1
          }
          dim {
            size: 1
          }
        }
      }
    }
  }
}
node {
  name: "linear/linear_model/engagement/weighted_sum"
  op: "MatMul"
  input: "linear/linear_model/engagement/Reshape"
  input: "linear/linear_model/engagement/weights"
  attr {
    key: "T"
    value {
      type: DT_FLOAT
    }
  }
  attr {
    key: "_output_shapes"
    value {
      list {
        shape {
          dim {
            size: 303
          }
          dim {
            size: 1
          }
        }
      }
    }
  }
  attr {
    key: "transpose_a"
    value {
      b: false
    }
  }
  attr {
    key: "transpose_b"
    value {
      b: false
    }
  }
}
node {
…
  input: "save/RestoreV2:38"
  attr {
    key: "T"
    value {
      type: DT_FLOAT
    }
  }
  attr {
    key: "_class"
    value {
      list {
        s: "loc:@linear/linear_model/like_dislike/weights/part_0"
      }
    }
  }
  attr {
    key: "_output_shapes"
    value {
      list {
        shape {
          dim {
            size: 1
          }
          dim {
            size: 1
          }
        }
      }
    }
  }
  attr {
    key: "use_locking"
    value {
      b: true
    }
  }
  attr {
    key: "validate_shape"
    value {
      b: true
    }
  }
}
node {
  name: "save/Assign_39"
  op: "Assign"
  input: "linear/linear/linear_model/like_dislike/weights/part_0/linear_name"
  input: "save/RestoreV2:39"
  attr {
    key: "T"
    value {
      type: DT_FLOAT
    }
  }
  attr {
    key: "_class"
    value {
      list {
        s: "loc:@linear/linear_model/like_dislike/weights/part_0"
      }
    }
  }
  attr {
    key: "_output_shapes"
    value {
      list {
        shape {
          dim {
            size: 1
          }
          dim {
            size: 1
          }
        }
      }
    }
  }
  attr {
    key: "use_locking"
    value {
      b: true
    }
  }
  attr {
    key: "validate_shape"
    value {
      b: true
    }
  }
}
node {
  name: "save/Assign_40"
  op: "Assign"
  input: "linear/linear_model/location_indicator/weights/part_0"
  input: "save/RestoreV2:40"
  attr {
    key: "T"
    value {
      type: DT_FLOAT
    }
  }
  attr {
    key: "_class"
    value {
      list {
        s: "loc:@linear/linear_model/location_indicator/weights/part_0"
      }
    }
  }
  attr {
    key: "_output_shapes"
    value {
      list {
        shape {
          dim {
            size: 3
          }
          dim {
            size: 1
          }
        }
      }
    }
  }
  attr {
    key: "use_locking"
    value {
      b: true
    }
  }
  attr {
    key: "validate_shape"
    value {
      b: true
    }
  }
}
node {
  name: "save/Assign_41"
  op: "Assign"
  input: "linear/linear/linear_model/location_indicator/weights/part_0/accum_name"
  input: "save/RestoreV2:41"
  attr {
    key: "T"
    value {
      type: DT_FLOAT
    }
  }
  attr {
    key: "_class"
    value {
      list {
        s: "loc:@linear/linear_model/location_indicator/weights/part_0"
      }
    }
  }
  attr {
    key: "_output_shapes"
    value {
      list {
        shape {
          dim {
            size: 3
          }
          dim {
            size: 1
          }
        }
      }
    }
  }
  attr {
    key: "use_locking"
    value {
      b: true
    }
  }
  attr {
    key: "validate_shape"
    value {
      b: true
    }
  }
}
node {
  name: "save/Assign_42"
  op: "Assign"
  input: "linear/linear/linear_model/location_indicator/weights/part_0/linear_name"
  input: "save/RestoreV2:42"
  attr {
    key: "T"
    value {
      type: DT_FLOAT
    }
  }
  attr {
    key: "_class"
    value {
      list {
        s: "loc:@linear/linear_model/location_indicator/weights/part_0"
      }
    }
  }
  attr {
    key: "_output_shapes"
    value {
      list {
        shape {
          dim {
            size: 3
          }
          dim {
            size: 1
          }
        }
      }
    }
  }
  attr {
    key: "use_locking"
    value {
      b: true
    }
  }
  attr {
    key: "validate_shape"
    value {
      b: true
    }
  }
}
node {
  name: "save/Assign_43"
  op: "Assign"
  input: "linear/linear_model/music_pref_classical/weights/part_0"
  input: "save/RestoreV2:43"
  attr {
    key: "T"
    value {
      type: DT_FLOAT
    }
  }
  attr {
    key: "_class"
    value {
      list {
        s: "loc:@linear/linear_model/music_pref_classical/weights/part_0"
      }
    }
  }
  attr {
    key: "_output_shapes"
    value {
      list {
        shape {
          dim {
            size: 1
          }
          dim {
            size: 1
          }
        }
      }
    }
  }
  attr {
    key: "use_locking"
    value {
      b: true
    }
  }
  attr {
    key: "validate_shape"
    value {
      b: true
    }
  }
}
node {
  name: "save/Assign_44"
  op: "Assign"
  input: "linear/linear/linear_model/music_pref_classical/weights/part_0/accum_name"
  input: "save/RestoreV2:44"
  attr {
    key: "T"
    value {
      type: DT_FLOAT
    }
  }
  attr {
    key: "_class"
    value {
      list {
        s: "loc:@linear/linear_model/music_pref_classical/weights/part_0"
      }
    }
  }
  attr {
    key: "_output_shapes"
    value {
      list {
        shape {
          dim {
            size: 1
          }
          dim {
            size: 1
          }
        }
      }
    }
  }
  attr {
    key: "use_locking"
    value {
      b: true
    }
  }
  attr {
    key: "validate_shape"
    value {
      b: true
    }
  }
}
node {
  name: "save/Assign_45"
  op: "Assign"
  input: "linear/linear/linear_model/music_pref_classical/weights/part_0/linear_name"
  input: "save/RestoreV2:45"
  attr {
    key: "T"
    value {
      type: DT_FLOAT
    }
  }
  attr {
    key: "_class"
    value {
      list {
        s: "loc:@linear/linear_model/music_pref_classical/weights/part_0"
      }
    }
  }
  attr {
    key: "_output_shapes"
    value {
      list {
        shape {
          dim {
            size: 1
          }
          dim {
            size: 1
          }
        }
      }
    }
  }
  attr {
    key: "use_locking"
    value {
      b: true
    }
  }
  attr {
    key: "validate_shape"
    value {
      b: true
    }
  }
}
node {
  name: "save/Assign_46"
  op: "Assign"
  input: "linear/linear_model/music_pref_dance/weights/part_0"
  input: "save/RestoreV2:46"
  attr {
    key: "T"
    value {
      type: DT_FLOAT
    }
  }
  attr {
    key: "_class"
    value {
      list {
        s: "loc:@linear/linear_model/music_pref_dance/weights/part_0"
      }
    }
  }
  attr {
    key: "_output_shapes"
    value {
      list {
        shape {
          dim {
            size: 1
          }
          dim {
            size: 1
          }
        }
      }
    }
  }
  attr {
    key: "use_locking"
    value {
      b: true
    }
  }
  attr {
    key: "validate_shape"
    value {
      b: true
    }
  }
}
node {
  name: "save/Assign_47"
  op: "Assign"
  input: "linear/linear/linear_model/music_pref_dance/weights/part_0/accum_name"
  input: "save/RestoreV2:47"
  attr {
    key: "T"
    value {
      type: DT_FLOAT
    }
  }
  attr {
    key: "_class"
    value {
      list {
        s: "loc:@linear/linear_model/music_pref_dance/weights/part_0"
      }
    }
  }
  attr {
    key: "_output_shapes"
    value {
      list {
        shape {
          dim {
            size: 1
          }
          dim {
            size: 1
          }
        }
      }
    }
  }
  attr {
    key: "use_locking"
    value {
      b: true
    }
  }
  attr {
    key: "validate_shape"
    value {
      b: true
    }
  }
}
node {
  name: "save/Assign_48"
  op: "Assign"
  input: "linear/linear/linear_model/music_pref_dance/weights/part_0/linear_name"
  input: "save/RestoreV2:48"
  attr {
    key: "T"
    value {
      type: DT_FLOAT
    }
  }
  attr {
    key: "_class"
    value {
      list {
        s: "loc:@linear/linear_model/music_pref_dance/weights/part_0"
      }
    }
  }
  attr {
    key: "_output_shapes"
    value {
      list {
        shape {
          dim {
            size: 1
          }
          dim {
            size: 1
          }
        }
      }
    }
  }
  attr {
    key: "use_locking"
    value {
      b: true
    }
  }
  attr {
    key: "validate_shape"
    value {
      b: true
    }
  }
}
node {
  name: "save/Assign_49"
  op: "Assign"
  input: "linear/linear_model/music_pref_folk/weights/part_0"
  input: "save/RestoreV2:49"
  attr {
    key: "T"
    value {
      type: DT_FLOAT
    }
  }
  attr {
    key: "_class"
    value {
      list {
        s: "loc:@linear/linear_model/music_pref_folk/weights/part_0"
      }
    }
  }
  attr {
    key: "_output_shapes"
    value {
      list {
        shape {
          dim {
            size: 1
          }
          dim {
            size: 1
          }
        }
      }
    }
  }
  attr {
    key: "use_locking"
    value {
      b: true
    }
  }
  attr {
    key: "validate_shape"
    value {
      b: true
    }
  }
}
node {
  name: "save/Assign_50"
  op: "Assign"
  input: "linear/linear/linear_model/music_pref_folk/weights/part_0/accum_name"
  input: "save/RestoreV2:50"
  attr {
    key: "T"
    value {
      type: DT_FLOAT
    }
  }
  attr {
    key: "_class"
    value {
      list {
        s: "loc:@linear/linear_model/music_pref_folk/weights/part_0"
      }
    }
  }
  attr {
    key: "_output_shapes"
    value {
      list {
        shape {
          dim {
            size: 1
          }
          dim {
            size: 1
          }
        }
      }
    }
  }
  attr {
    key: "use_locking"
    value {
      b: true
    }
  }
  attr {
    key: "validate_shape"
    value {
      b: true
    }
  }
}
node {
  name: "save/Assign_51"
  op: "Assign"
  input: "linear/linear/linear_model/music_pref_folk/weights/part_0/linear_name"
  input: "save/RestoreV2:51"
  attr {
    key: "T"
    value {
      type: DT_FLOAT
    }
  }
  attr {
    key: "_class"
    value {
      list {
        s: "loc:@linear/linear_model/music_pref_folk/weights/part_0"
      }
    }
  }
  attr {
    key: "_output_shapes"
    value {
      list {
        shape {
          dim {
            size: 1
          }
          dim {
            size: 1
          }
        }
      }
    }
  }
  attr {
    key: "use_locking"
    value {
      b: true
    }
  }
  attr {
    key: "validate_shape"
    value {
      b: true
    }
  }
}
node {
  name: "save/Assign_52"
  op: "Assign"
  input: "linear/linear_model/music_pref_hiphop/weights/part_0"
  input: "save/RestoreV2:52"
  attr {
    key: "T"
    value {
      type: DT_FLOAT
    }
  }
  attr {
    key: "_class"
    value {
      list {
        s: "loc:@linear/linear_model/music_pref_hiphop/weights/part_0"
      }
    }
  }
  attr {
    key: "_output_shapes"
    value {
      list {
        shape {
          dim {
            size: 1
          }
          dim {
            size: 1
          }
        }
      }
    }
  }
  attr {
    key: "use_locking"
    value {
      b: true
    }
  }
  attr {
    key: "validate_shape"
    value {
      b: true
    }
  }
}
node {
  name: "save/Assign_53"
  op: "Assign"
  input: "linear/linear/linear_model/music_pref_hiphop/weights/part_0/accum_name"
  input: "save/RestoreV2:53"
  attr {
    key: "T"
    value {
      type: DT_FLOAT
    }
  }
  attr {
    key: "_class"
    value {
      list {
        s: "loc:@linear/linear_model/music_pref_hiphop/weights/part_0"
      }
    }
  }
  attr {
    key: "_output_shapes"
    value {
      list {
        shape {
          dim {
            size: 1
          }
          dim {
            size: 1
          }
        }
      }
    }
  }
  attr {
    key: "use_locking"
    value {
      b: true
    }
  }
  attr {
    key: "validate_shape"
    value {
      b: true
    }
  }
}
node {
  name: "save/Assign_54"
  op: "Assign"
  input: "linear/linear/linear_model/music_pref_hiphop/weights/part_0/linear_name"
  input: "save/RestoreV2:54"
  attr {
    key: "T"
    value {
      type: DT_FLOAT
    }
  }
  attr {
    key: "_class"
    value {
      list {
        s: "loc:@linear/linear_model/music_pref_hiphop/weights/part_0"
      }
    }
  }
  attr {
    key: "_output_shapes"
    value {
      list {
        shape {
          dim {
            size: 1
          }
          dim {
            size: 1
          }
        }
      }
    }
  }
  attr {
    key: "use_locking"
    value {
      b: true
    }
  }
  attr {
    key: "validate_shape"
    value {
      b: true
    }
  }
}
node {
  name: "save/Assign_55"
  op: "Assign"
  input: "linear/linear_model/music_pref_jazz/weights/part_0"
  input: "save/RestoreV2:55"
  attr {
    key: "T"
    value {
      type: DT_FLOAT
    }
  }
  attr {
    key: "_class"
    value {
      list {
        s: "loc:@linear/linear_model/music_pref_jazz/weights/part_0"
      }
    }
  }
  attr {
    key: "_output_shapes"
    value {
      list {
        shape {
          dim {
            size: 1
          }
          dim {
            size: 1
          }
        }
      }
    }
  }
  attr {
    key: "use_locking"
    value {
      b: true
    }
  }
  attr {
    key: "validate_shape"
    value {
      b: true
    }
  }
}
node {
  name: "save/Assign_56"
  op: "Assign"
  input: "linear/linear/linear_model/music_pref_jazz/weights/part_0/accum_name"
  input: "save/RestoreV2:56"
  attr {
    key: "T"
    value {
      type: DT_FLOAT
    }
  }
  attr {
    key: "_class"
    value {
      list {
        s: "loc:@linear/linear_model/music_pref_jazz/weights/part_0"
      }
    }
  }
  attr {
    key: "_output_shapes"
    value {
      list {
        shape {
          dim {
            size: 1
          }
          dim {
            size: 1
          }
        }
      }
    }
  }
  attr {
    key: "use_locking"
    value {
      b: true
    }
  }
  attr {
    key: "validate_shape"
    value {
      b: true
    }
  }
}
node {
  name: "save/Assign_57"
  op: "Assign"
  input: "linear/linear/linear_model/music_pref_jazz/weights/part_0/linear_name"
  input: "save/RestoreV2:57"
  attr {
    key: "T"
    value {
      type: DT_FLOAT
    }
  }
  attr {
    key: "_class"
    value {
      list {
        s: "loc:@linear/linear_model/music_pref_jazz/weights/part_0"
      }
    }
  }
  attr {
    key: "_output_shapes"
    value {
      list {
        shape {
          dim {
            size: 1
          }
          dim {
            size: 1
          }
        }
      }
    }
  }
  attr {
    key: "use_locking"
    value {
      b: true
    }
  }
  attr {
    key: "validate_shape"
    value {
      b: true
    }
  }
}
node {
  name: "save/Assign_58"
  op: "Assign"
  input: "linear/linear_model/music_pref_none/weights/part_0"
  input: "save/RestoreV2:58"
  attr {
    key: "T"
    value {
      type: DT_FLOAT
    }
  }
  attr {
    key: "_class"
    value {
      list {
        s: "loc:@linear/linear_model/music_pref_none/weights/part_0"
      }
    }
  }
  attr {
    key: "_output_shapes"
    value {
      list {
        shape {
          dim {
            size: 1
          }
          dim {
            size: 1
          }
        }
      }
    }
  }
  attr {
    key: "use_locking"
    value {
      b: true
    }
  }
  attr {
    key: "validate_shape"
    value {
      b: true
    }
  }
}
node {
  name: "save/Assign_59"
  op: "Assign"
  input: "linear/linear/linear_model/music_pref_none/weights/part_0/accum_name"
  input: "save/RestoreV2:59"
  attr {
    key: "T"
    value {
      type: DT_FLOAT
    }
  }
  attr {
    key: "_class"
    value {
      list {
        s: "loc:@linear/linear_model/music_pref_none/weights/part_0"
      }
    }
  }
  attr {
    key: "_output_shapes"
    value {
      list {
        shape {
          dim {
            size: 1
          }
          dim {
            size: 1
          }
        }
      }
    }
  }
  attr {
    key: "use_locking"
    value {
      b: true
    }
  }
  attr {
    key: "validate_shape"
    value {
      b: true
    }
  }
}
node {
  name: "save/Assign_60"
  op: "Assign"
  input: "linear/linear/linear_model/music_pref_none/weights/part_0/linear_name"
  input: "save/RestoreV2:60"
  attr {
    key: "T"
    value {
      type: DT_FLOAT
    }
  }
  attr {
    key: "_class"
    value {
      list {
        s: "loc:@linear/linear_model/music_pref_none/weights/part_0"
      }
    }
  }
  attr {
    key: "_output_shapes"
    value {
      list {
        shape {
          dim {
            size: 1
          }
          dim {
            size: 1
          }
        }
      }
    }
  }
  attr {
    key: "use_locking"
    value {
      b: true
    }
  }
  attr {
    key: "validate_shape"
    value {
      b: true
    }
  }
}
node {
  name: "save/Assign_61"
  op: "Assign"
  input: "linear/linear_model/music_pref_pop/weights/part_0"
  input: "save/RestoreV2:61"
  attr {
    key: "T"
    value {
      type: DT_FLOAT
    }
  }
  attr {
    key: "_class"
    value {
      list {
        s: "loc:@linear/linear_model/music_pref_pop/weights/part_0"
      }
    }
  }
  attr {
    key: "_output_shapes"
    value {
      list {
        shape {
          dim {
            size: 1
          }
          dim {
            size: 1
          }
        }
      }
    }
  }
  attr {
    key: "use_locking"
    value {
      b: true
    }
  }
  attr {
    key: "validate_shape"
    value {
      b: true
    }
  }
}
node {
  name: "save/Assign_62"
  op: "Assign"
  input: "linear/linear/linear_model/music_pref_pop/weights/part_0/accum_name"
  input: "save/RestoreV2:62"
  attr {
    key: "T"
    value {
      type: DT_FLOAT
    }
  }
  attr {
    key: "_class"
    value {
      list {
        s: "loc:@linear/linear_model/music_pref_pop/weights/part_0"
      }
    }
  }
  attr {
    key: "_output_shapes"
    value {
      list {
        shape {
          dim {
            size: 1
          }
          dim {
            size: 1
          }
        }
      }
    }
  }
  attr {
    key: "use_locking"
    value {
      b: true
    }
  }
  attr {
    key: "validate_shape"
    value {
      b: true
    }
  }
}
node {
  name: "save/Assign_63"
  op: "Assign"
  input: "linear/linear/linear_model/music_pref_pop/weights/part_0/linear_name"
  input: "save/RestoreV2:63"
  attr {
    key: "T"
    value {
      type: DT_FLOAT
    }
  }
  attr {
    key: "_class"
    value {
      list {
        s: "loc:@linear/linear_model/music_pref_pop/weights/part_0"
      }
    }
  }
  attr {
    key: "_output_shapes"
    value {
      list {
        shape {
          dim {
            size: 1
          }
          dim {
            size: 1
          }
        }
      }
    }
  }
  attr {
    key: "use_locking"
    value {
      b: true
    }
  }
  attr {
    key: "validate_shape"
    value {
      b: true
    }
  }
}
node {
  name: "save/Assign_64"
  op: "Assign"
  input: "linear/linear_model/music_pref_rock/weights/part_0"
  input: "save/RestoreV2:64"
  attr {
    key: "T"
    value {
      type: DT_FLOAT
    }
  }
  attr {
    key: "_class"
    value {
      list {
        s: "loc:@linear/linear_model/music_pref_rock/weights/part_0"
      }
    }
  }
  attr {
    key: "_output_shapes"
    value {
      list {
        shape {
          dim {
            size: 1
          }
          dim {
            size: 1
          }
        }
      }
    }
  }
  attr {
    key: "use_locking"
    value {
      b: true
    }
  }
  attr {
    key: "validate_shape"
    value {
      b: true
    }
  }
}
node {
  name: "save/Assign_65"
  op: "Assign"
  input: "linear/linear/linear_model/music_pref_rock/weights/part_0/accum_name"
  input: "save/RestoreV2:65"
  attr {
    key: "T"
    value {
      type: DT_FLOAT
    }
  }
  attr {
    key: "_class"
    value {
      list {
        s: "loc:@linear/linear_model/music_pref_rock/weights/part_0"
      }
    }
  }
  attr {
    key: "_output_shapes"
    value {
      list {
        shape {
          dim {
            size: 1
          }
          dim {
            size: 1
          }
        }
      }
    }
  }
  attr {
    key: "use_locking"
    value {
      b: true
    }
  }
  attr {
    key: "validate_shape"
    value {
      b: true
    }
  }
}
node {
  name: "save/Assign_66"
  op: "Assign"
  input: "linear/linear/linear_model/music_pref_rock/weights/part_0/linear_name"
  input: "save/RestoreV2:66"
  attr {
    key: "T"
    value {
      type: DT_FLOAT
    }
  }
  attr {
    key: "_class"
    value {
      list {
        s: "loc:@linear/linear_model/music_pref_rock/weights/part_0"
      }
    }
  }
  attr {
    key: "_output_shapes"
    value {
      list {
        shape {
          dim {
            size: 1
          }
          dim {
            size: 1
          }
        }
      }
    }
  }
  attr {
    key: "use_locking"
    value {
      b: true
    }
  }
  attr {
    key: "validate_shape"
    value {
      b: true
    }
  }
}
node {
  name: "save/Assign_67"
  op: "Assign"
  input: "linear/linear_model/music_pref_traditional_irish/weights/part_0"
  input: "save/RestoreV2:67"
  attr {
    key: "T"
    value {
      type: DT_FLOAT
    }
  }
  attr {
    key: "_class"
    value {
      list {
        s: "loc:@linear/linear_model/music_pref_traditional_irish/weights/part_0"
      }
    }
  }
  attr {
    key: "_output_shapes"
    value {
      list {
        shape {
          dim {
            size: 1
          }
          dim {
            size: 1
          }
        }
      }
    }
  }
  attr {
    key: "use_locking"
    value {
      b: true
    }
  }
  attr {
    key: "validate_shape"
    value {
      b: true
    }
  }
}
node {
  name: "save/Assign_68"
  op: "Assign"
  input: "linear/linear/linear_model/music_pref_traditional_irish/weights/part_0/accum_name"
  input: "save/RestoreV2:68"
  attr {
    key: "T"
    value {
      type: DT_FLOAT
    }
  }
  attr {
    key: "_class"
    value {
      list {
        s: "loc:@linear/linear_model/music_pref_traditional_irish/weights/part_0"
      }
    }
  }
  attr {
    key: "_output_shapes"
    value {
      list {
        shape {
          dim {
            size: 1
          }
          dim {
            size: 1
          }
        }
      }
    }
  }
  attr {
    key: "use_locking"
    value {
      b: true
    }
  }
  attr {
    key: "validate_shape"
    value {
      b: true
    }
  }
}
node {
  name: "save/Assign_69"
  op: "Assign"
  input: "linear/linear/linear_model/music_pref_traditional_irish/weights/part_0/linear_name"
  input: "save/RestoreV2:69"
  attr {
    key: "T"
    value {
      type: DT_FLOAT
    }
  }
  attr {
    key: "_class"
    value {
      list {
        s: "loc:@linear/linear_model/music_pref_traditional_irish/weights/part_0"
      }
    }
  }
  attr {
    key: "_output_shapes"
    value {
      list {
        shape {
          dim {
            size: 1
          }
          dim {
            size: 1
          }
        }
      }
    }
  }
  attr {
    key: "use_locking"
    value {
      b: true
    }
  }
  attr {
    key: "validate_shape"
    value {
      b: true
    }
  }
}
node {
  name: "save/Assign_70"
  op: "Assign"
  input: "linear/linear_model/music_pref_world/weights/part_0"
  input: "save/RestoreV2:70"
  attr {
    key: "T"
    value {
      type: DT_FLOAT
    }
  }
  attr {
    key: "_class"
    value {
      list {
        s: "loc:@linear/linear_model/music_pref_world/weights/part_0"
      }
    }
  }
  attr {
    key: "_output_shapes"
    value {
      list {
        shape {
          dim {
            size: 1
          }
          dim {
            size: 1
          }
        }
      }
    }
  }
  attr {
    key: "use_locking"
    value {
      b: true
    }
  }
  attr {
    key: "validate_shape"
    value {
      b: true
    }
  }
}
node {
  name: "save/Assign_71"
  op: "Assign"
  input: "linear/linear/linear_model/music_pref_world/weights/part_0/accum_name"
  input: "save/RestoreV2:71"
  attr {
    key: "T"
    value {
      type: DT_FLOAT
    }
  }
  attr {
    key: "_class"
    value {
      list {
        s: "loc:@linear/linear_model/music_pref_world/weights/part_0"
      }
    }
  }
  attr {
    key: "_output_shapes"
    value {
      list {
        shape {
          dim {
            size: 1
          }
          dim {
            size: 1
          }
        }
      }
    }
  }
  attr {
    key: "use_locking"
    value {
      b: true
    }
  }
  attr {
    key: "validate_shape"
    value {
      b: true
    }
  }
}
node {
  name: "save/Assign_72"
  op: "Assign"
  input: "linear/linear/linear_model/music_pref_world/weights/part_0/linear_name"
  input: "save/RestoreV2:72"
  attr {
    key: "T"
    value {
      type: DT_FLOAT
    }
  }
  attr {
    key: "_class"
    value {
      list {
        s: "loc:@linear/linear_model/music_pref_world/weights/part_0"
      }
    }
  }
  attr {
    key: "_output_shapes"
    value {
      list {
        shape {
          dim {
            size: 1
          }
          dim {
            size: 1
          }
        }
      }
    }
  }
  attr {
    key: "use_locking"
    value {
      b: true
    }
  }
  attr {
    key: "validate_shape"
    value {
      b: true
    }
  }
}
node {
  name: "save/Assign_73"
  op: "Assign"
  input: "linear/linear_model/musical_expertise/weights/part_0"
  input: "save/RestoreV2:73"
  attr {
    key: "T"
    value {
      type: DT_FLOAT
    }
  }
  attr {
    key: "_class"
    value {
      list {
        s: "loc:@linear/linear_model/musical_expertise/weights/part_0"
      }
    }
  }
  attr {
    key: "_output_shapes"
    value {
      list {
        shape {
          dim {
            size: 1
          }
          dim {
            size: 1
          }
        }
      }
    }
  }
  attr {
    key: "use_locking"
    value {
      b: true
    }
  }
  attr {
    key: "validate_shape"
    value {
      b: true
    }
  }
}
node {
  name: "save/Assign_74"
  op: "Assign"
  input: "linear/linear/linear_model/musical_expertise/weights/part_0/accum_name"
  input: "save/RestoreV2:74"
  attr {
    key: "T"
    value {
      type: DT_FLOAT
    }
  }
  attr {
    key: "_class"
    value {
      list {
        s: "loc:@linear/linear_model/musical_expertise/weights/part_0"
      }
    }
  }
  attr {
    key: "_output_shapes"
    value {
      list {
        shape {
          dim {
            size: 1
          }
          dim {
            size: 1
          }
        }
      }
    }
  }
  attr {
    key: "use_locking"
    value {
      b: true
    }
  }
  attr {
    key: "validate_shape"
    value {
      b: true
    }
  }
}
node {
  name: "save/Assign_75"
  op: "Assign"
  input: "linear/linear/linear_model/musical_expertise/weights/part_0/linear_name"
  input: "save/RestoreV2:75"
  attr {
    key: "T"
    value {
      type: DT_FLOAT
    }
  }
  attr {
    key: "_class"
    value {
      list {
        s: "loc:@linear/linear_model/musical_expertise/weights/part_0"
      }
    }
  }
  attr {
    key: "_output_shapes"
    value {
      list {
        shape {
          dim {
            size: 1
          }
          dim {
            size: 1
          }
        }
      }
    }
  }
  attr {
    key: "use_locking"
    value {
      b: true
    }
  }
  attr {
    key: "validate_shape"
    value {
      b: true
    }
  }
}
node {
  name: "save/Assign_76"
  op: "Assign"
  input: "linear/linear_model/nationality_indicator/weights/part_0"
  input: "save/RestoreV2:76"
  attr {
    key: "T"
    value {
      type: DT_FLOAT
    }
  }
  attr {
    key: "_class"
    value {
      list {
        s: "loc:@linear/linear_model/nationality_indicator/weights/part_0"
      }
    }
  }
  attr {
    key: "_output_shapes"
    value {
      list {
        shape {
          dim {
            size: 11
          }
          dim {
            size: 1
          }
        }
      }
    }
  }
  attr {
    key: "use_locking"
    value {
      b: true
    }
  }
  attr {
    key: "validate_shape"
    value {
      b: true
    }
  }
}
node {
  name: "save/Assign_77"
  op: "Assign"
  input: "linear/linear/linear_model/nationality_indicator/weights/part_0/accum_name"
  input: "save/RestoreV2:77"
  attr {
    key: "T"
    value {
      type: DT_FLOAT
    }
  }
  attr {
    key: "_class"
    value {
      list {
        s: "loc:@linear/linear_model/nationality_indicator/weights/part_0"
      }
    }
  }
  attr {
    key: "_output_shapes"
    value {
      list {
        shape {
          dim {
            size: 11
          }
          dim {
            size: 1
          }
        }
      }
    }
  }
  attr {
    key: "use_locking"
    value {
      b: true
    }
  }
  attr {
    key: "validate_shape"
    value {
      b: true
    }
  }
}
node {
  name: "save/Assign_78"
  op: "Assign"
  input: "linear/linear/linear_model/nationality_indicator/weights/part_0/linear_name"
  input: "save/RestoreV2:78"
  attr {
    key: "T"
    value {
      type: DT_FLOAT
    }
  }
  attr {
    key: "_class"
    value {
      list {
        s: "loc:@linear/linear_model/nationality_indicator/weights/part_0"
      }
    }
  }
  attr {
    key: "_output_shapes"
    value {
      list {
        shape {
          dim {
            size: 11
          }
          dim {
            size: 1
          }
        }
      }
    }
  }
  attr {
    key: "use_locking"
    value {
      b: true
    }
  }
  attr {
    key: "validate_shape"
    value {
      b: true
    }
  }
}
node {
  name: "save/Assign_79"
  op: "Assign"
  input: "linear/linear_model/nervous/weights/part_0"
  input: "save/RestoreV2:79"
  attr {
    key: "T"
    value {
      type: DT_FLOAT
    }
  }
  attr {
    key: "_class"
    value {
      list {
        s: "loc:@linear/linear_model/nervous/weights/part_0"
      }
    }
  }
  attr {
    key: "_output_shapes"
    value {
      list {
        shape {
          dim {
            size: 1
          }
          dim {
            size: 1
          }
        }
      }
    }
  }
  attr {
    key: "use_locking"
    value {
      b: true
    }
  }
  attr {
    key: "validate_shape"
    value {
      b: true
    }
  }
}
node {
  name: "save/Assign_80"
  op: "Assign"
  input: "linear/linear/linear_model/nervous/weights/part_0/accum_name"
  input: "save/RestoreV2:80"
  attr {
    key: "T"
    value {
      type: DT_FLOAT
    }
  }
  attr {
    key: "_class"
    value {
      list {
        s: "loc:@linear/linear_model/nervous/weights/part_0"
      }
    }
  }
  attr {
    key: "_output_shapes"
    value {
      list {
        shape {
          dim {
            size: 1
          }
          dim {
            size: 1
          }
        }
      }
    }
  }
  attr {
    key: "use_locking"
    value {
      b: true
    }
  }
  attr {
    key: "validate_shape"
    value {
      b: true
    }
  }
}
node {
  name: "save/Assign_81"
  op: "Assign"
  input: "linear/linear/linear_model/nervous/weights/part_0/linear_name"
  input: "save/RestoreV2:81"
  attr {
    key: "T"
    value {
      type: DT_FLOAT
    }
  }
  attr {
    key: "_class"
    value {
      list {
        s: "loc:@linear/linear_model/nervous/weights/part_0"
      }
    }
  }
  attr {
    key: "_output_shapes"
    value {
      list {
        shape {
          dim {
            size: 1
          }
          dim {
            size: 1
          }
        }
      }
    }
  }
  attr {
    key: "use_locking"
    value {
      b: true
    }
  }
  attr {
    key: "validate_shape"
    value {
      b: true
    }
  }
}
node {
  name: "save/Assign_82"
  op: "Assign"
  input: "linear/linear_model/outgoing/weights/part_0"
  input: "save/RestoreV2:82"
  attr {
    key: "T"
    value {
      type: DT_FLOAT
    }
  }
  attr {
    key: "_class"
    value {
      list {
        s: "loc:@linear/linear_model/outgoing/weights/part_0"
      }
    }
  }
  attr {
    key: "_output_shapes"
    value {
      list {
        shape {
          dim {
            size: 1
          }
          dim {
            size: 1
          }
        }
      }
    }
  }
  attr {
    key: "use_locking"
    value {
      b: true
    }
  }
  attr {
    key: "validate_shape"
    value {
      b: true
    }
  }
}
node {
  name: "save/Assign_83"
  op: "Assign"
  input: "linear/linear/linear_model/outgoing/weights/part_0/accum_name"
  input: "save/RestoreV2:83"
  attr {
    key: "T"
    value {
      type: DT_FLOAT
    }
  }
  attr {
    key: "_class"
    value {
      list {
        s: "loc:@linear/linear_model/outgoing/weights/part_0"
      }
    }
  }
  attr {
    key: "_output_shapes"
    value {
      list {
        shape {
          dim {
            size: 1
          }
          dim {
            size: 1
          }
        }
      }
    }
  }
  attr {
    key: "use_locking"
    value {
      b: true
    }
  }
  attr {
    key: "validate_shape"
    value {
      b: true
    }
  }
}
node {
  name: "save/Assign_84"
  op: "Assign"
  input: "linear/linear/linear_model/outgoing/weights/part_0/linear_name"
  input: "save/RestoreV2:84"
  attr {
    key: "T"
    value {
      type: DT_FLOAT
    }
  }
  attr {
    key: "_class"
    value {
      list {
        s: "loc:@linear/linear_model/outgoing/weights/part_0"
      }
    }
  }
  attr {
    key: "_output_shapes"
    value {
      list {
        shape {
          dim {
            size: 1
          }
          dim {
            size: 1
          }
        }
      }
    }
  }
  attr {
    key: "use_locking"
    value {
      b: true
    }
  }
  attr {
    key: "validate_shape"
    value {
      b: true
    }
  }
}
node {
  name: "save/Assign_85"
  op: "Assign"
  input: "linear/linear_model/positivity/weights/part_0"
  input: "save/RestoreV2:85"
  attr {
    key: "T"
    value {
      type: DT_FLOAT
    }
  }
  attr {
    key: "_class"
    value {
      list {
        s: "loc:@linear/linear_model/positivity/weights/part_0"
      }
    }
  }
  attr {
    key: "_output_shapes"
    value {
      list {
        shape {
          dim {
            size: 1
          }
          dim {
            size: 1
          }
        }
      }
    }
  }
  attr {
    key: "use_locking"
    value {
      b: true
    }
  }
  attr {
    key: "validate_shape"
    value {
      b: true
    }
  }
}
node {
  name: "save/Assign_86"
  op: "Assign"
  input: "linear/linear/linear_model/positivity/weights/part_0/accum_name"
  input: "save/RestoreV2:86"
  attr {
    key: "T"
    value {
      type: DT_FLOAT
    }
  }
  attr {
    key: "_class"
    value {
      list {
        s: "loc:@linear/linear_model/positivity/weights/part_0"
      }
    }
  }
  attr {
    key: "_output_shapes"
    value {
      list {
        shape {
          dim {
            size: 1
          }
          dim {
            size: 1
          }
        }
      }
    }
  }
  attr {
    key: "use_locking"
    value {
      b: true
    }
  }
  attr {
    key: "validate_shape"
    value {
      b: true
    }
  }
}
node {
  name: "save/Assign_87"
  op: "Assign"
  input: "linear/linear/linear_model/positivity/weights/part_0/linear_name"
  input: "save/RestoreV2:87"
  attr {
    key: "T"
    value {
      type: DT_FLOAT
    }
  }
  attr {
    key: "_class"
    value {
      list {
        s: "loc:@linear/linear_model/positivity/weights/part_0"
      }
    }
  }
  attr {
    key: "_output_shapes"
    value {
      list {
        shape {
          dim {
            size: 1
          }
          dim {
            size: 1
          }
        }
      }
    }
  }
  attr {
    key: "use_locking"
    value {
      b: true
    }
  }
  attr {
    key: "validate_shape"
    value {
      b: true
    }
  }
}
node {
  name: "save/Assign_88"
  op: "Assign"
  input: "linear/linear_model/reserved/weights/part_0"
  input: "save/RestoreV2:88"
  attr {
    key: "T"
    value {
      type: DT_FLOAT
    }
  }
  attr {
    key: "_class"
    value {
      list {
        s: "loc:@linear/linear_model/reserved/weights/part_0"
      }
    }
  }
  attr {
    key: "_output_shapes"
    value {
      list {
        shape {
          dim {
            size: 1
          }
          dim {
            size: 1
          }
        }
      }
    }
  }
  attr {
    key: "use_locking"
    value {
      b: true
    }
  }
  attr {
    key: "validate_shape"
    value {
      b: true
    }
  }
}
node {
  name: "save/Assign_89"
  op: "Assign"
  input: "linear/linear/linear_model/reserved/weights/part_0/accum_name"
  input: "save/RestoreV2:89"
  attr {
    key: "T"
    value {
      type: DT_FLOAT
    }
  }
  attr {
    key: "_class"
    value {
      list {
        s: "loc:@linear/linear_model/reserved/weights/part_0"
      }
    }
  }
  attr {
    key: "_output_shapes"
    value {
      list {
        shape {
          dim {
            size: 1
          }
          dim {
            size: 1
          }
        }
      }
    }
  }
  attr {
    key: "use_locking"
    value {
      b: true
    }
  }
  attr {
    key: "validate_shape"
    value {
      b: true
    }
  }
}
node {
  name: "save/Assign_90"
  op: "Assign"
  input: "linear/linear/linear_model/reserved/weights/part_0/linear_name"
  input: "save/RestoreV2:90"
  attr {
    key: "T"
    value {
      type: DT_FLOAT
    }
  }
  attr {
    key: "_class"
    value {
      list {
        s: "loc:@linear/linear_model/reserved/weights/part_0"
      }
    }
  }
  attr {
    key: "_output_shapes"
    value {
      list {
        shape {
          dim {
            size: 1
          }
          dim {
            size: 1
          }
        }
      }
    }
  }
  attr {
    key: "use_locking"
    value {
      b: true
    }
  }
  attr {
    key: "validate_shape"
    value {
      b: true
    }
  }
}
node {
  name: "save/Assign_91"
  op: "Assign"
  input: "linear/linear_model/sex_indicator/weights/part_0"
  input: "save/RestoreV2:91"
  attr {
    key: "T"
    value {
      type: DT_FLOAT
    }
  }
  attr {
    key: "_class"
    value {
      list {
        s: "loc:@linear/linear_model/sex_indicator/weights/part_0"
      }
    }
  }
  attr {
    key: "_output_shapes"
    value {
      list {
        shape {
          dim {
            size: 2
          }
          dim {
            size: 1
          }
        }
      }
    }
  }
  attr {
    key: "use_locking"
    value {
      b: true
    }
  }
  attr {
    key: "validate_shape"
    value {
      b: true
    }
  }
}
node {
  name: "save/Assign_92"
  op: "Assign"
  input: "linear/linear/linear_model/sex_indicator/weights/part_0/accum_name"
  input: "save/RestoreV2:92"
  attr {
    key: "T"
    value {
      type: DT_FLOAT
    }
  }
  attr {
    key: "_class"
    value {
      list {
        s: "loc:@linear/linear_model/sex_indicator/weights/part_0"
      }
    }
  }
  attr {
    key: "_output_shapes"
    value {
      list {
        shape {
          dim {
            size: 2
          }
          dim {
            size: 1
          }
        }
      }
    }
  }
  attr {
    key: "use_locking"
    value {
      b: true
    }
  }
  attr {
    key: "validate_shape"
    value {
      b: true
    }
  }
}
node {
  name: "save/Assign_93"
  op: "Assign"
  input: "linear/linear/linear_model/sex_indicator/weights/part_0/linear_name"
  input: "save/RestoreV2:93"
  attr {
    key: "T"
    value {
      type: DT_FLOAT
    }
  }
  attr {
    key: "_class"
    value {
      list {
        s: "loc:@linear/linear_model/sex_indicator/weights/part_0"
      }
    }
  }
  attr {
    key: "_output_shapes"
    value {
      list {
        shape {
          dim {
            size: 2
          }
          dim {
            size: 1
          }
        }
      }
    }
  }
  attr {
    key: "use_locking"
    value {
      b: true
    }
  }
  attr {
    key: "validate_shape"
    value {
      b: true
    }
  }
}
node {
  name: "save/Assign_94"
  op: "Assign"
  input: "linear/linear_model/stress/weights/part_0"
  input: "save/RestoreV2:94"
  attr {
    key: "T"
    value {
      type: DT_FLOAT
    }
  }
  attr {
    key: "_class"
    value {
      list {
        s: "loc:@linear/linear_model/stress/weights/part_0"
      }
    }
  }
  attr {
    key: "_output_shapes"
    value {
      list {
        shape {
          dim {
            size: 1
          }
          dim {
            size: 1
          }
        }
      }
    }
  }
  attr {
    key: "use_locking"
    value {
      b: true
    }
  }
  attr {
    key: "validate_shape"
    value {
      b: true
    }
  }
}
node {
  name: "save/Assign_95"
  op: "Assign"
  input: "linear/linear/linear_model/stress/weights/part_0/accum_name"
  input: "save/RestoreV2:95"
  attr {
    key: "T"
    value {
      type: DT_FLOAT
    }
  }
  attr {
    key: "_class"
    value {
      list {
        s: "loc:@linear/linear_model/stress/weights/part_0"
      }
    }
  }
  attr {
    key: "_output_shapes"
    value {
      list {
        shape {
          dim {
            size: 1
          }
          dim {
            size: 1
          }
        }
      }
    }
  }
  attr {
    key: "use_locking"
    value {
      b: true
    }
  }
  attr {
    key: "validate_shape"
    value {
      b: true
    }
  }
}
node {
  name: "save/Assign_96"
  op: "Assign"
  input: "linear/linear/linear_model/stress/weights/part_0/linear_name"
  input: "save/RestoreV2:96"
  attr {
    key: "T"
    value {
      type: DT_FLOAT
    }
  }
  attr {
    key: "_class"
    value {
      list {
        s: "loc:@linear/linear_model/stress/weights/part_0"
      }
    }
  }
  attr {
    key: "_output_shapes"
    value {
      list {
        shape {
          dim {
            size: 1
          }
          dim {
            size: 1
          }
        }
      }
    }
  }
  attr {
    key: "use_locking"
    value {
      b: true
    }
  }
  attr {
    key: "validate_shape"
    value {
      b: true
    }
  }
}
node {
  name: "save/Assign_97"
  op: "Assign"
  input: "linear/linear_model/tension/weights/part_0"
  input: "save/RestoreV2:97"
  attr {
    key: "T"
    value {
      type: DT_FLOAT
    }
  }
  attr {
    key: "_class"
    value {
      list {
        s: "loc:@linear/linear_model/tension/weights/part_0"
      }
    }
  }
  attr {
    key: "_output_shapes"
    value {
      list {
        shape {
          dim {
            size: 1
          }
          dim {
            size: 1
          }
        }
      }
    }
  }
  attr {
    key: "use_locking"
    value {
      b: true
    }
  }
  attr {
    key: "validate_shape"
    value {
      b: true
    }
  }
}
node {
  name: "save/Assign_98"
  op: "Assign"
  input: "linear/linear/linear_model/tension/weights/part_0/accum_name"
  input: "save/RestoreV2:98"
  attr {
    key: "T"
    value {
      type: DT_FLOAT
    }
  }
  attr {
    key: "_class"
    value {
      list {
        s: "loc:@linear/linear_model/tension/weights/part_0"
      }
    }
  }
  attr {
    key: "_output_shapes"
    value {
      list {
        shape {
          dim {
            size: 1
          }
          dim {
            size: 1
          }
        }
      }
    }
  }
  attr {
    key: "use_locking"
    value {
      b: true
    }
  }
  attr {
    key: "validate_shape"
    value {
      b: true
    }
  }
}
node {
  name: "save/Assign_99"
  op: "Assign"
  input: "linear/linear/linear_model/tension/weights/part_0/linear_name"
  input: "save/RestoreV2:99"
  attr {
    key: "T"
    value {
      type: DT_FLOAT
    }
  }
  attr {
    key: "_class"
    value {
      list {
        s: "loc:@linear/linear_model/tension/weights/part_0"
      }
    }
  }
  attr {
    key: "_output_shapes"
    value {
      list {
        shape {
          dim {
            size: 1
          }
          dim {
            size: 1
          }
        }
      }
    }
  }
  attr {
    key: "use_locking"
    value {
      b: true
    }
  }
  attr {
    key: "validate_shape"
    value {
      b: true
    }
  }
}
node {
  name: "save/Assign_100"
  op: "Assign"
  input: "linear/linear_model/thorough/weights/part_0"
  input: "save/RestoreV2:100"
  attr {
    key: "T"
    value {
      type: DT_FLOAT
    }
  }
  attr {
    key: "_class"
    value {
      list {
        s: "loc:@linear/linear_model/thorough/weights/part_0"
      }
    }
  }
  attr {
    key: "_output_shapes"
    value {
      list {
        shape {
          dim {
            size: 1
          }
          dim {
            size: 1
          }
        }
      }
    }
  }
  attr {
    key: "use_locking"
    value {
      b: true
    }
  }
  attr {
    key: "validate_shape"
    value {
      b: true
    }
  }
}
node {
  name: "save/Assign_101"
  op: "Assign"
  input: "linear/linear/linear_model/thorough/weights/part_0/accum_name"
  input: "save/RestoreV2:101"
  attr {
    key: "T"
    value {
      type: DT_FLOAT
    }
  }
  attr {
    key: "_class"
    value {
      list {
        s: "loc:@linear/linear_model/thorough/weights/part_0"
      }
    }
  }
  attr {
    key: "_output_shapes"
    value {
      list {
        shape {
          dim {
            size: 1
          }
          dim {
            size: 1
          }
        }
      }
    }
  }
  attr {
    key: "use_locking"
    value {
      b: true
    }
  }
  attr {
    key: "validate_shape"
    value {
      b: true
    }
  }
}
node {
  name: "save/Assign_102"
  op: "Assign"
  input: "linear/linear/linear_model/thorough/weights/part_0/linear_name"
  input: "save/RestoreV2:102"
  attr {
    key: "T"
    value {
      type: DT_FLOAT
    }
  }
  attr {
    key: "_class"
    value {
      list {
        s: "loc:@linear/linear_model/thorough/weights/part_0"
      }
    }
  }
  attr {
    key: "_output_shapes"
    value {
      list {
        shape {
          dim {
            size: 1
          }
          dim {
            size: 1
          }
        }
      }
    }
  }
  attr {
    key: "use_locking"
    value {
      b: true
    }
  }
  attr {
    key: "validate_shape"
    value {
      b: true
    }
  }
}
node {
  name: "save/Assign_103"
  op: "Assign"
  input: "linear/linear_model/trusting/weights/part_0"
  input: "save/RestoreV2:103"
  attr {
    key: "T"
    value {
      type: DT_FLOAT
    }
  }
  attr {
    key: "_class"
    value {
      list {
        s: "loc:@linear/linear_model/trusting/weights/part_0"
      }
    }
  }
  attr {
    key: "_output_shapes"
    value {
      list {
        shape {
          dim {
            size: 1
          }
          dim {
            size: 1
          }
        }
      }
    }
  }
  attr {
    key: "use_locking"
    value {
      b: true
    }
  }
  attr {
    key: "validate_shape"
    value {
      b: true
    }
  }
}
node {
  name: "save/Assign_104"
  op: "Assign"
  input: "linear/linear/linear_model/trusting/weights/part_0/accum_name"
  input: "save/RestoreV2:104"
  attr {
    key: "T"
    value {
      type: DT_FLOAT
    }
  }
  attr {
    key: "_class"
    value {
      list {
        s: "loc:@linear/linear_model/trusting/weights/part_0"
      }
    }
  }
  attr {
    key: "_output_shapes"
    value {
      list {
        shape {
          dim {
            size: 1
          }
          dim {
            size: 1
          }
        }
      }
    }
  }
  attr {
    key: "use_locking"
    value {
      b: true
    }
  }
  attr {
    key: "validate_shape"
    value {
      b: true
    }
  }
}
node {
  name: "save/Assign_105"
  op: "Assign"
  input: "linear/linear/linear_model/trusting/weights/part_0/linear_name"
  input: "save/RestoreV2:105"
  attr {
    key: "T"
    value {
      type: DT_FLOAT
    }
  }
  attr {
    key: "_class"
    value {
      list {
        s: "loc:@linear/linear_model/trusting/weights/part_0"
      }
    }
  }
  attr {
    key: "_output_shapes"
    value {
      list {
        shape {
          dim {
            size: 1
          }
          dim {
            size: 1
          }
        }
      }
    }
  }
  attr {
    key: "use_locking"
    value {
      b: true
    }
  }
  attr {
    key: "validate_shape"
    value {
      b: true
    }
  }
}
node {
  name: "save/restore_shard"
  op: "NoOp"
  input: "^save/Assign"
  input: "^save/Assign_1"
  input: "^save/Assign_10"
  input: "^save/Assign_100"
  input: "^save/Assign_101"
  input: "^save/Assign_102"
  input: "^save/Assign_103"
  input: "^save/Assign_104"
  input: "^save/Assign_105"
  input: "^save/Assign_11"
  input: "^save/Assign_12"
  input: "^save/Assign_13"
  input: "^save/Assign_14"
  input: "^save/Assign_15"
  input: "^save/Assign_16"
  input: "^save/Assign_17"
  input: "^save/Assign_18"
  input: "^save/Assign_19"
  input: "^save/Assign_2"
  input: "^save/Assign_20"
  input: "^save/Assign_21"
  input: "^save/Assign_22"
  input: "^save/Assign_23"
  input: "^save/Assign_24"
  input: "^save/Assign_25"
  input: "^save/Assign_26"
  input: "^save/Assign_27"
  input: "^save/Assign_28"
  input: "^save/Assign_29"
  input: "^save/Assign_3"
  input: "^save/Assign_30"
  input: "^save/Assign_31"
  input: "^save/Assign_32"
  input: "^save/Assign_33"
  input: "^save/Assign_34"
  input: "^save/Assign_35"
  input: "^save/Assign_36"
  input: "^save/Assign_37"
  input: "^save/Assign_38"
  input: "^save/Assign_39"
  input: "^save/Assign_4"
  input: "^save/Assign_40"
  input: "^save/Assign_41"
  input: "^save/Assign_42"
  input: "^save/Assign_43"
  input: "^save/Assign_44"
  input: "^save/Assign_45"
  input: "^save/Assign_46"
  input: "^save/Assign_47"
  input: "^save/Assign_48"
  input: "^save/Assign_49"
  input: "^save/Assign_5"
  input: "^save/Assign_50"
  input: "^save/Assign_51"
  input: "^save/Assign_52"
  input: "^save/Assign_53"
  input: "^save/Assign_54"
  input: "^save/Assign_55"
  input: "^save/Assign_56"
  input: "^save/Assign_57"
  input: "^save/Assign_58"
  input: "^save/Assign_59"
  input: "^save/Assign_6"
  input: "^save/Assign_60"
  input: "^save/Assign_61"
  input: "^save/Assign_62"
  input: "^save/Assign_63"
  input: "^save/Assign_64"
  input: "^save/Assign_65"
  input: "^save/Assign_66"
  input: "^save/Assign_67"
  input: "^save/Assign_68"
  input: "^save/Assign_69"
  input: "^save/Assign_7"
  input: "^save/Assign_70"
  input: "^save/Assign_71"
  input: "^save/Assign_72"
  input: "^save/Assign_73"
  input: "^save/Assign_74"
  input: "^save/Assign_75"
  input: "^save/Assign_76"
  input: "^save/Assign_77"
  input: "^save/Assign_78"
  input: "^save/Assign_79"
  input: "^save/Assign_8"
  input: "^save/Assign_80"
  input: "^save/Assign_81"
  input: "^save/Assign_82"
  input: "^save/Assign_83"
  input: "^save/Assign_84"
  input: "^save/Assign_85"
  input: "^save/Assign_86"
  input: "^save/Assign_87"
  input: "^save/Assign_88"
  input: "^save/Assign_89"
  input: "^save/Assign_9"
  input: "^save/Assign_90"
  input: "^save/Assign_91"
  input: "^save/Assign_92"
  input: "^save/Assign_93"
  input: "^save/Assign_94"
  input: "^save/Assign_95"
  input: "^save/Assign_96"
  input: "^save/Assign_97"
  input: "^save/Assign_98"
  input: "^save/Assign_99"
}
node {
  name: "save/restore_all"
  op: "NoOp"
  input: "^save/restore_shard"
}
versions {
  producer: 26
}
